model/3node_SL_2.pt (torch, 127559 bytes, 10 tensors)

fc1.weight f4 [64, 30]
000000 66 a9 24 3d 0c cc 72 3d ed c6 25 bd 2b b1 62 bd
       0.040200613 0.059276626 -0.040472914 -0.05534474
000010 87 4d a8 3d 26 ce 97 3d 27 61 f8 3d fa bd 38 bb
       0.08217912 0.074123666 0.12127905 -0.0028189407
000020 7b 25 f0 3c 98 bd d4 3c 7c e7 e4 bd e0 b6 29 3d
       0.029314747 0.025969312 -0.11176965 0.04143417
000030 c4 14 69 3e e6 05 e2 3c 2a e0 48 3e bf d7 0f 3e
       0.22761828 0.027590703 0.19616762 0.14047144
000040 e9 ae e7 ba 2b 50 62 3e ff 10 44 3e a5 98 08 be
       -0.0017676029 0.22100894 0.19147108 -0.1333948
000050 24 25 22 3e b2 79 d4 bd 93 94 98 bd 01 c9 93 3e
       0.1583448 -0.10374774 -0.07450213 0.2886429
000060 12 e9 46 3e 4d 65 ac bd 22 5e 97 bc 06 d8 3b 3e
       0.19424847 -0.08417759 -0.018477503 0.18344125
000070 aa 7c 45 bd 61 fe 14 3a 8d 29 8a 3d bc 9f 01 3d
       -0.048214592 0.00056836574 0.067462064 0.031646475
000080 dc 03 23 3e 9b 56 14 3e db 73 d1 bc cc 0f 90 bd
       0.15919441 0.14486162 -0.02556794 -0.07034263
000090 98 0e 3e bd cb e6 32 3e 9a 20 3e 3e a0 48 2c bc
       -0.046400636 0.17470853 0.18567124 -0.010515362
0000a0 79 51 f3 3d e4 f2 88 3d d8 41 07 bd e4 c1 58 3e
       0.11880774 0.06686953 -0.033021778 0.21167713
0000b0 28 df b9 3d 17 ba a8 3d a4 9a 0e 3e ed 2a d1 3d
       0.09075767 0.08238619 0.13926178 0.102132656
0000c0 da 8c a2 be a4 a4 c0 bb ef 94 0a 3e 18 dd d8 3d
       -0.31748086 -0.0058790017 0.13533376 0.10589045
0000d0 f3 55 39 3e e8 85 86 be d2 f6 70 3d 5f 62 86 3d
       0.18099193 -0.26274037 0.058829136 0.065617315
0000e0 f5 60 0e 3d 77 62 82 bd ab 9c 7d 3d 24 41 47 be
       0.034760434 -0.06366437 0.06191699 -0.19458443
0000f0 11 da 18 3e 51 dd e8 bd d0 b6 b2 bd 6c dd 53 bd
       0.14926936 -0.11370338 -0.08726275 -0.051724836
000100 7c 2c d1 bd a9 aa ef 3d d0 97 2b 3d 7c 53 b9 bd
       -0.10213563 0.11702473 0.041892827 -0.090491265
000110 43 d9 cd 3d b4 1d 21 be d6 eb 27 3e 00 a6 6a 3e
       0.10051205 -0.15733987 0.16398558 0.22914886
000120 45 2e 3c 3e c2 7c 25 be 2a 8f e2 bd 25 04 a7 bc
       0.18377025 -0.16160873 -0.11062463 -0.020387718
000130 42 ee 22 3c f9 4d 63 3e 8c db 1f 3c c7 f1 1f bd
       0.0099445 0.22197713 0.009756934 -0.039048936
000140 14 ba 47 3e c2 39 12 3e 52 cb d9 bd 71 58 9d 3c
       0.19504577 0.14279845 -0.106344834 0.019207211
000150 4d 4e e1 bc 7c 9c ed bd 3d f1 17 3d fb 3a ac bc
       -0.027503157 -0.11602113 0.037095297 -0.021024218
000160 08 a5 e6 bd 9a ac 55 3e c3 25 8e 3d ad cb f1 3d
       -0.11261946 0.20866624 0.06940796 0.11806426
000170 17 e0 8d 3d 11 49 3d 3e 59 5c b3 3d 4c 20 f7 bc
       0.06927507 0.18484904 0.08757848 -0.030166768
000180 0e 02 8e 3d b6 33 eb 3d 9a 5d 10 3d e5 e1 a6 3d
       0.06933986 0.114844725 0.035245515 0.08148555
000190 a7 3f ea 3d 97 27 79 3c 71 f1 09 be 6e d1 33 3d
       0.11437922 0.015207193 -0.13471009 0.0439009
0001a0 da b5 23 3d 18 f6 7c 3d f3 0f d9 3c e8 3b 23 bc
       0.03996835 0.06175813 0.026496863 -0.009963013
0001b0 d2 e7 b4 be 15 c5 3b 3d 19 24 82 3c 58 1c cc bd
       -0.35333115 0.04584225 0.015886353 -0.09966344
0001c0 43 33 1d 3d 5a 36 18 bd 05 f1 85 be 42 7f 89 3e
       0.038378965 -0.03716121 -0.26160446 0.26854903
0001d0 ae f5 ee 3d 43 e8 66 3c b6 2c 1e 3e 2c f1 87 be
       0.116679534 0.014093461 0.15446743 -0.26551187
0001e0 e3 e7 52 bd 43 1d 99 bd 4f 72 bc 3c e9 67 dd 3d
       -0.051490676 -0.07476284 0.023003725 0.10810835
0001f0 53 23 41 3e d4 a2 12 be a9 ca 85 bd 62 a6 3b 3e
       0.18861131 -0.14319927 -0.06532795 0.18325189
000200 6c 8f 94 3d 23 df 2b bd b0 54 58 3e 67 52 29 3d
       0.07253918 -0.041960847 0.21126056 0.04133835
000210 26 42 c9 bd 19 c5 bb 3d c4 ea 2e 3e fe 9f f8 3c
       -0.0982707 0.09168453 0.17081743 0.030349728
000220 5c 23 21 3e e1 a5 a6 3d 3b ad d9 bd 41 65 fb 3d
       0.15736145 0.08137108 -0.10628744 0.12275172
000230 29 9a dd bd 52 9c 95 3d 83 58 97 bc 70 23 05 be
       -0.10820419 0.07305206 -0.018474823 -0.130018
000240 d7 1e 31 be 9d 48 a2 3d c9 68 5f bd 77 8e a5 3d
       -0.1729692 0.07924006 -0.05454329 0.08083814
000250 df 60 f1 3d 44 21 81 be 52 51 11 3e a8 3b c3 bc
       0.11786055 -0.25220692 0.14191177 -0.023832157
000260 4a 7e ba 3b 48 54 c1 3d 40 5b 0a 3d f2 1f 9b 3d
       0.0056913244 0.094399035 0.03377843 0.075744525
000270 8e ca 72 bd db 87 e3 bd e5 84 4d 3e ac 10 ff 3c
       -0.059275202 -0.11109897 0.20070226 0.03113588
000280 29 89 6e bd d3 dc 75 3e 37 e6 f8 bd b5 bc 93 bc
       -0.058236275 0.24010019 -0.12153285 -0.018034318
000290 21 92 ca ba 8b ac 85 3d ee 5b 5f 3d 22 b3 64 3e
       -0.0015454927 0.065270506 0.05453103 0.22333959
0002a0 9e ef 80 3e c6 85 4d be 3b 85 94 3d bb 8b 03 be
       0.25182813 -0.20070562 0.07251974 -0.12846272
0002b0 ae 45 be bd 5f ab 23 3e 25 13 99 3c 06 da ac 3d
       -0.09290634 0.15983342 0.018685887 0.08440022
0002c0 30 b6 b3 3d f4 5a 72 bd db 29 20 bd be 10 8b 3e
       0.08774984 -0.05916877 -0.039102416 0.2716121
0002d0 ff 73 2f bc cc 69 26 3e 88 74 e0 3d c1 0b 1b bc
       -0.010708808 0.16251296 0.109597266 -0.009463252
0002e0 b4 39 0e bd ed 52 f6 bd 70 99 03 3e be 0d a2 bc
       -0.034723 -0.120275356 0.128515 -0.019781943
0002f0 90 88 80 3e 3c 36 ab 3d 88 d5 cf 3d 6e 2f 38 be
       0.2510419 0.08359954 0.1014815 -0.17986843
000300 e6 36 46 be 8b 72 d2 3d 3b e6 b5 bd 47 d4 41 bc
       -0.1935688 0.102757536 -0.088818036 -0.011830396
000310 cf 47 82 3e db ae 34 bc a3 14 8d be 57 9c 15 3e
       0.2544541 -0.011028017 -0.27554807 0.1461042
000320 af 74 ac 3d 7f 40 59 bd c6 77 ed 3d 01 17 25 be
       0.08420693 -0.053040024 0.115951106 -0.16122057
000330 c7 5f 33 be c6 ae 11 3e 72 3b f5 3d f5 10 19 3e
       -0.17517005 0.14226827 0.11974229 0.14947875
000340 e8 84 a9 bc c6 cf 65 be 47 33 b3 3d 1a b5 10 be
       -0.020693257 -0.2244254 0.08750015 -0.14131585
000350 4a 0e fc 3d c5 bd 0f be 8e fa 46 3d 25 7f 9b bd
       0.12307413 -0.14037235 0.04857879 -0.0759261
000360 4a e0 95 3d 25 65 3d 3e dc 1c aa 3c c9 a2 77 3d
       0.0731817 0.18495615 0.020765714 0.06045798
000370 f3 47 8f 3c 26 07 3b bd 58 5c 9b 3d ac 24 95 bd
       0.017490363 -0.045661114 0.075859725 -0.07282385
000380 e9 8d bd 3d 29 2d b9 3c 7a 1e 7b bd 8a d2 52 be
       0.09255583 0.022604542 -0.06130836 -0.20588127
000390 69 02 91 be bc 35 3f 3e d9 ba 80 bd 05 e4 03 bb
       -0.2832215 0.18672842 -0.06285638 -0.0020124924
0003a0 54 1f 6b 3e d9 b7 76 bd 7c 08 89 bd ac 8c a8 bc
       0.2296117 -0.060233925 -0.066910714 -0.02057489
0003b0 4e 83 04 be b0 a1 0b be 18 c1 69 3e 0d ab a5 bd
       -0.12940714 -0.13635898 0.22827566 -0.08089266
0003c0 1c 1e 1c 3e 75 fa f3 3d 48 5d 0a 3e f1 13 e0 bd
       0.15245861 0.11913005 0.13512146 -0.109413035
0003d0 a3 bb a7 bd 05 e7 57 3e 86 64 5c 3e 89 83 81 3d
       -0.08190086 0.2108422 0.21522722 0.063239165
0003e0 30 3d 2a 3d 26 70 3f 3d 33 c4 d1 3d 8d 6c c8 bd
       0.04156226 0.046737812 0.102425 -0.097863294
0003f0 33 24 86 3e 9d 2b 1f 3e 6b ef 10 3e d8 95 02 3e
       0.26199493 0.15543981 0.1415383 0.12752473

fc1.bias f4 [64]
000000 66 03 03 3e d7 28 61 bd 86 10 da 3d ba 80 ad bc
       0.12794265 -0.05497059 0.10647683 -0.021179546
000010 06 ee 12 be 70 d9 a7 bd 6a f2 83 bc bd ef 2b 3e
       -0.14348611 -0.0819577 -0.016106803 0.16790672
000020 c6 dd 92 3d 7e f4 43 3d bd 3c 7e 3b 37 07 07 bd
       0.07171206 0.047840588 0.0038793527 -0.032965865
000030 d1 92 4e 3e 51 d1 97 3d c7 81 42 3d 60 d7 01 be
       0.20173194 0.07412971 0.047487047 -0.12679815
000040 2d f5 f9 bd 2a e2 2c be b5 8d df bd 7c c6 ff 3a
       -0.12204967 -0.1688315 -0.109157 0.0019514109
000050 fd 9f 26 3e 3c 58 dc bd e8 ed 1b 3e 27 21 50 3e
       0.16271968 -0.10759017 0.15227473 0.20325147
000060 de cb ec 3c 30 15 1b be 1a 27 2a 3d 67 c0 51 3e
       0.028905805 -0.15144801 0.041541196 0.20483552
000070 d2 e3 b3 bd 30 c2 d4 bd 63 5d 04 3e e0 72 98 3d
       -0.08783688 -0.10388601 0.12926249 0.07443786
000080 3a 72 e2 3c 6a 69 36 3b f8 5b a8 3d 1e 74 94 bd
       0.027642358 0.0027833828 0.08220667 -0.0724871
000090 45 42 5a 3e a7 90 c6 3d b8 91 c5 3d fe 04 2d 3e
       0.21314342 0.09695559 0.09646934 0.16896436
0000a0 d3 81 37 bd 88 70 f8 bd 2e 4c 53 3e 4b e6 83 3b
       -0.044801544 -0.12130839 0.20634529 0.004025256
0000b0 16 34 6a 3c 47 28 16 bd ea fa 98 bd e3 b9 f5 3d
       0.014294645 -0.036659505 -0.07469733 0.11998346
0000c0 cb 58 07 3e 6a 11 41 3c 86 38 be 3d 1e 37 08 3d
       0.13217466 0.011783937 0.09288125 0.03325569
0000d0 14 59 46 3e 93 a2 e3 3d 76 9b 18 be d9 c3 06 3d
       0.19369918 0.11114993 -0.14903054 0.03290162
0000e0 58 91 a0 3d d1 b8 9f bd 90 cb 0e 3e 7e 52 02 3e
       0.07840222 -0.07798923 0.1394484 0.12726781
0000f0 7a a2 cd bc 10 e9 37 3e 42 f5 e2 bc 38 a0 92 3d
       -0.025101889 0.1796 -0.027704839 0.071594656

rnn.weight_ih_l0 f4 [192, 64]
000000 f6 0c e5 3d 7b c4 f5 3c 3f e4 ac bd 83 70 d7 3d
       0.11184113 0.030000916 -0.08441972 0.10519507
000010 3b 26 84 bd d5 2a c8 3b 68 6c ea 3b 94 85 28 3e
       -0.064526044 0.0061086216 0.0071540363 0.16457206
000020 7c 92 9f bc df 51 ed 3c 7d 25 15 bd 14 64 9b 3d
       -0.019479029 0.028969703 -0.036412705 0.07587448
000030 87 99 14 3d 63 5f 09 3e d3 63 5c 3c 39 c5 fd 3d
       0.036279228 0.13415293 0.013451534 0.12391133
000040 9e 85 b8 3d c5 b9 d2 bd b7 07 51 bd d8 ff 18 bd
       0.090098605 -0.10289339 -0.051032748 -0.037353367
000050 2a 3a 11 3e 03 3c f4 ba 8f 44 cf 3d bb b4 65 bd
       0.14182344 -0.0018633608 0.101204984 -0.05608056
000060 2f 04 40 3d 00 d1 43 3d 28 b2 18 3e 0a 6f 3f 3e
       0.04687899 0.04780674 0.14911711 0.18694702
000070 dc 5c cf 3d b3 29 da 3d 94 2a 69 3d d8 bf 9b 3d
       0.101251334 0.10652485 0.05692537 0.07604951
000080 9b 4f f6 3d eb 5a 6e bd 84 20 f0 3d a5 52 1e 3e
       0.12026902 -0.058192175 0.11724952 0.15461214
000090 7d cd 81 3b 9d 1a 22 3d 6a 75 29 3e fe 52 53 bd
       0.0039612637 0.03957616 0.16548696 -0.05159282
0000a0 dc a9 25 3e 67 04 1e bc 81 30 3c 3d 70 7a 1f 3c
       0.16178077 -0.009644604 0.045944694 0.009733781
0000b0 3d d3 d8 3d 4a fc 7f 3c e8 14 00 bc 76 97 2b 3e
       0.105871655 0.015624115 -0.007817484 0.16756997
0000c0 b0 c3 6c 3c 69 a0 c3 3c d1 3b 44 bd 89 87 0d 3c
       0.014450952 0.0238802 -0.047908608 0.008638271
0000d0 9e 21 4d bd 99 34 84 bd 40 87 ff 3d d5 50 90 3d
       -0.050080888 -0.06455345 0.12476969 0.070466675
0000e0 1a 93 27 3e f5 59 e1 bb 7e e3 75 bd ce a5 6c 3c
       0.16364709 -0.006877179 -0.060031407 0.014443828
0000f0 c1 40 92 bc 5e cd b3 3c 18 16 a5 3d 20 a4 93 3d
       -0.017853143 0.021948513 0.08060855 0.07209039
000100 64 ac f2 3d 10 9a 80 bd ae 86 12 3e 67 36 8b bc
       0.11849287 -0.06279385 0.14309189 -0.016993714
000110 da 68 55 bd f8 3b 04 3b c7 fa 6b be 3e 87 35 bd
       -0.052101947 0.0020177346 -0.23044883 -0.04431843
000120 33 ec 8f bd 7b 19 a2 bc 40 7d b1 3c 70 8f dc 3d
       -0.07027473 -0.01978754 0.02166617 0.10769546
000130 62 73 cd bd fc 4b f6 3d dd 2a ea bd 80 4b 42 be
       -0.10031773 0.120262116 -0.11433957 -0.18974113
000140 af 1a 78 be be 56 59 3c 6e 03 43 bc c3 5d e0 bc
       -0.24228929 0.01326531 -0.011902673 -0.02738846
000150 bd 47 4d 3d 02 a7 91 bd 30 0b de 3c 6d b9 fb 3d
       0.050117243 -0.07111932 0.027104944 0.122912265
000160 ca 1d 92 bd 71 78 00 be e8 8c 4a bc 49 d5 34 3d
       -0.07134588 -0.12545945 -0.012362696 0.044148717
000170 95 d3 02 3d 50 52 f2 bd 0e 67 8b bd 56 2d 0e be
       0.03194006 -0.11832106 -0.068067655 -0.13884482
000180 e4 ab 7d 3d fd 33 f9 bc f9 d7 a1 bd 8a 40 32 3b
       0.061931506 -0.030420298 -0.07902522 0.0027199113
000190 2b 13 fb 3d 42 54 06 3e 9d 86 15 3d 21 09 de bd
       0.122595154 0.1311808 0.03650533 -0.10841585
0001a0 a1 4c 84 3d 9c 0a 5c be 3a 4e 46 bd 8e 99 1c bd
       0.06459928 -0.21488422 -0.048414446 -0.03823238
0001b0 6b 3b a0 3d 7d 2f d5 bd 98 c8 f1 3d b2 f5 fd bd
       0.07823833 -0.10409448 0.11805838 -0.12400378
0001c0 58 29 17 3e c3 0c 44 3d f4 8e 51 be d7 2f 06 3e
       0.14761865 0.047863733 -0.20464689 0.13104187
0001d0 5d 80 08 3e 16 68 1b 3e e9 f7 28 be f1 7c ca 3d
       0.13330217 0.15176424 -0.1650082 0.09887112
0001e0 c9 8a a2 bd e8 57 ff 3d 44 c8 89 3d 3d d8 04 bb
       -0.079366274 0.12467939 0.06727651 -0.002027049
0001f0 f5 12 1c bc 80 fa 4e 3d 68 cd 0d 3e 7a c7 b9 3d
       -0.009526004 0.050531864 0.13847888 0.0907125
000200 26 b1 ce 3d 3f 64 b3 3d ed 4f 3d 3d 28 1b d8 3c
       0.10092382 0.08759355 0.0462188 0.026380137
000210 05 ed 34 3c c7 12 a4 bc 62 aa 80 3d ca cc 2e 3e
       0.011042838 -0.020028485 0.06282498 0.17070308
000220 09 49 c7 3c b7 34 73 bd fe 64 aa 3c a8 a5 0d 3e
       0.024326818 -0.059376445 0.02080011 0.13832724
000230 4f 55 ea 3d f0 87 e3 3c eb 22 09 3e ec 2d 8e bd
       0.114420526 0.027774781 0.13392226 -0.06942353
000240 5e 1f 6e 3d 6d 97 3a 3d c7 b5 1d 3e e1 89 81 bb
       0.058135383 0.045554567 0.15401374 -0.003953204
000250 49 2f 65 3c 35 8b f6 3c 3a 96 94 bc 61 15 fb ba
       0.013988324 0.030095676 -0.01813804 -0.0019156152
000260 43 88 c2 3c 02 22 93 3d 1a c2 23 3e 0a b4 ce bc
       0.023746615 0.07184221 0.15992013 -0.025232334
000270 05 77 54 3d e4 8a 02 3e 31 21 a9 bd 84 c9 06 3e
       0.05187132 0.12748295 -0.08258284 0.1316281
000280 c9 71 ab 3d 2e 1e 0b 3d 39 73 64 3d 63 43 c7 3d
       0.08371312 0.03396433 0.055773947 0.0972965
000290 7a 03 e2 3d fa 14 cb 3c c8 df 8f 3d f3 16 d0 3c
       0.11035819 0.024790276 0.07025105 0.025401568
0002a0 f4 8a a8 3d 27 ab d3 3c 37 0a 88 3b fe 3b 18 3e
       0.08229628 0.025838448 0.0041516083 0.14866635
0002b0 66 77 8f bc 61 04 a7 bc 37 f9 e4 3c 4d 6d 29 3d
       -0.017512988 -0.02038783 0.027950866 0.041364003
0002c0 6b bd 1e 3e ea 98 23 3e bd ad 06 3c 73 20 05 3e
       0.15501945 0.15976301 0.008220133 0.1300066
0002d0 3e 09 21 3e 0d ba 99 bd a7 9a 7a 3d 32 87 2a 3d
       0.15726182 -0.075061895 0.061182644 0.04163284
0002e0 ef 8a c4 3d ae 6e e4 bc ce 2a 13 3c b3 c8 b9 bd
       0.09596812 -0.027884807 0.008982373 -0.090714835
0002f0 9e 9c a8 3d 22 be 4f 3d bf 4a 0a 3e 8b 5e 13 3e
       0.08232997 0.050718434 0.13505076 0.14391534
000300 3b db 0a 3e 80 df 39 bc fb 4e 8a bc 3f 43 9e 3c
       0.13560192 -0.01134479 -0.016883364 0.019319175
000310 73 02 07 3e 14 85 0c 3e 9b 7d a9 bd f5 b9 06 bd
       0.13184528 0.1372264 -0.082759105 -0.032892186
000320 9a 4a 89 3d c3 96 1a bd ba f5 35 bd c1 8d 03 3d
       0.06703682 -0.037741434 -0.044423796 0.03211761
000330 08 f1 af bd 60 78 d9 bc 2e f7 01 be d5 62 83 3c
       -0.08590895 -0.026546657 -0.12691948 0.016038338
000340 fe b3 39 3d ae c1 3a bd 5e e6 ef 3d 24 d4 71 bc
       0.04533767 -0.045594864 0.11713861 -0.014760051
000350 c5 78 ce 3d d8 2f d5 3c 05 c1 8a bd 17 33 aa bd
       0.10081629 0.02602379 -0.06775097 -0.08310526
000360 64 6d a3 bc 66 46 90 bb e5 03 e1 3d bf b9 76 bd
       -0.019949622 -0.0044029234 0.10987071 -0.060235735
000370 ac 3e 9f bc 81 be 79 3d c4 6d 0a 3d 63 42 38 3d
       -0.019439064 0.060972694 0.033796087 0.044985186
000380 39 ef 70 bd e7 18 d2 bc 33 bf 22 be 75 e5 2f bc
       -0.05882189 -0.02564664 -0.15893249 -0.010735859
000390 97 85 c3 bd a4 38 e7 3b fd 9a 2c 3d 32 90 b7 bd
       -0.095469646 0.0070563126 0.042139996 -0.0896305
0003a0 37 df 89 3c c7 f1 05 3e 6c 1f 09 3e dc 42 a0 bd
       0.01683007 0.13080512 0.13390893 -0.078252524
0003b0 51 d5 a2 bc 86 21 a5 bd d3 d7 85 bd 91 19 43 bd
       -0.019877108 -0.08063035 -0.06535306 -0.047631804
0003c0 b1 0e 7a bd 16 21 31 3c 94 b5 01 3d f1 21 6d 3b
       -0.061049167 0.010811111 0.031667307 0.003618356
0003d0 68 1b 4d bb dc d7 e2 3d c6 ab ce 3d 4a 2b 04 3d
       -0.0031296853 0.11076328 0.10091357 0.032267846
0003e0 32 3e 31 3d 9e 5a 7a 3d 79 3f 28 3d e7 93 a4 bd
       0.043272205 0.061121576 0.041076157 -0.08036023
0003f0 10 9c ae bc 69 12 46 bd fc d7 de 3d fb 1c ca bd
       -0.02131465 -0.0483574 0.108810395 -0.09868809

rnn.weight_hh_l0 f4 [192, 64]
000000 a9 ab 44 3d e6 3e c9 bc 06 e1 3f 3d 4b 8a f2 bd
       0.04801527 -0.024566125 0.04684546 -0.118427835
000010 b3 de aa bc f8 7c 2c 3e 5d 0d 93 3d 4d 45 03 be
       -0.020858144 0.16844547 0.07180283 -0.12819405
000020 a4 88 da 3d 31 e9 f4 bc 97 36 fc bd 7d 8c 3d 3e
       0.106705934 -0.02989635 -0.123151 0.18510623
000030 b2 1a 91 bd ba 7f e6 3d 10 bb 5b 3d 27 2a ea bd
       -0.0708517 0.11254831 0.053645194 -0.11433821
000040 c4 6e 67 3d c7 58 58 3d cc 6d d1 bd a9 2f 38 3c
       0.05650212 0.05281904 -0.1022602 0.011241832
000050 00 e9 29 3d a8 65 c1 3c 20 1a 82 bc dc 4b 22 3c
       0.04148197 0.023608044 -0.015881598 0.009905782
000060 c1 05 0c be c6 ec 91 bd e0 16 0d be e4 52 19 3d
       -0.1367407 -0.07125239 -0.13778257 0.037432566
000070 8a c4 04 3e 26 9b d4 bd 5e 3b ac bd 8a ec e3 bc
       0.12965599 -0.10381155 -0.08409761 -0.027822752
000080 b9 32 ac 3a 57 bd 15 3e a3 9d 86 3d b0 1b af 3d
       0.0013137675 0.14623009 0.065730356 0.08550203
000090 60 a1 a9 bd 57 56 18 bd 27 aa 13 be d8 dc 76 3d
       -0.08282733 -0.037191715 -0.14420377 0.060269207
0000a0 b3 77 01 3c 0b 5e b1 3c c7 af ec bd ea 01 a4 3d
       0.007902074 0.021651288 -0.11556964 0.080081776
0000b0 9b 12 90 bd 1e 48 e0 3d 1c 89 91 bd a4 1c 72 bd
       -0.07034799 0.10951255 -0.0710623 -0.059109345
0000c0 40 54 e0 bd 48 ed d9 bd b2 6d 88 bb 57 dd 1f be
       -0.109535694 -0.10640961 -0.0041634673 -0.15611778
0000d0 e0 22 c5 bd a9 40 e6 bd 25 ba 7a bd 42 9d 08 3e
       -0.096257925 -0.11242802 -0.061212678 0.13341239
0000e0 02 39 bc 3d ce 42 01 3d ae d0 fe bd 50 8d f8 bc
       0.09190561 0.03155785 -0.12442146 -0.03034082
0000f0 52 4e 09 3b cb 0f bf bb 6d 39 cb 3d 2b 74 60 3d
       0.0020951224 -0.00583074 0.099230625 0.054798286
000100 db 39 d7 bd c9 46 b8 bd 02 05 fd 3c a4 9a 91 3d
       -0.10509082 -0.08997876 0.030886177 0.071095735
000110 78 f4 0a 3d 3e 26 03 be 93 40 08 be 44 6f 95 bd
       0.03392455 -0.12807557 -0.13305883 -0.07296613
000120 9e 27 fb 3d de ec 86 bd 02 44 36 bd 9f de 16 3e
       0.12263416 -0.065881476 -0.04449845 0.1473336
000130 a9 43 19 be 02 a5 d0 3d 49 38 5d bc d8 b0 f7 3c
       -0.14967217 0.10187723 -0.013502189 0.030235693
000140 61 9b ac bd 42 87 74 bd 78 d1 9d 3c 5c 4f 71 3d
       -0.08428074 -0.059699304 0.019264922 0.058913574
000150 b2 c8 99 3d 3f 83 39 3d a5 94 fd 3d 67 9e dd 3c
       0.07508983 0.04529118 0.12381867 0.027053071
000160 be fd 04 3e 6f 45 ad 3d 8f c8 1f bc bc 66 d5 3d
       0.1298742 0.08460509 -0.009752407 0.10419986
000170 b1 3e 90 bd b5 b9 c2 3d 82 57 15 3d 94 6e 15 3d
       -0.070432074 0.09508077 0.036460407 0.03648241
000180 53 27 81 3d fa c2 38 bc 04 b4 19 3e e3 b7 c4 bb
       0.063063286 -0.011276955 0.15010077 -0.0060033663
000190 ad 77 4a 3d 4c be ea bd a1 9a 4a 3d d9 7a d5 3d
       0.049430538 -0.114620775 0.049463872 0.10423822
0001a0 68 42 21 3d dc 26 01 be a8 37 47 bd a9 c1 88 3d
       0.03936997 -0.1261248 -0.048637062 0.06677563
0001b0 b5 92 ee bd 0c 8b 9b 3d f1 8b c5 3c 27 27 b5 bc
       -0.11649076 0.075948805 0.02411458 -0.022113396
0001c0 81 3b c0 3d b5 a4 0f 3e d4 21 09 3e c5 a3 12 bc
       0.093863495 0.14027674 0.1339181 -0.0089501785
0001d0 ef b5 b1 3d b3 ea 54 3d 2c bd f3 3c ae 41 09 be
       0.08677279 0.05198164 0.02975329 -0.13403961
0001e0 3c 76 a8 bd a2 4d f6 3b 90 ed 97 3d a3 6c c3 3d
       -0.082256764 0.007516579 0.07418358 0.09542205
0001f0 3e 33 85 bd 46 7f 8e 3d 36 93 ca 3d 94 7f 05 ba
       -0.06503914 0.06957869 0.098913595 -0.0005092558
000200 07 07 89 3d 85 d6 a4 3d 07 34 d5 3c ab fe a0 3d
       0.066907935 0.08048729 0.026025785 0.07861074
000210 f4 15 f1 3d c1 b0 11 3d 82 e6 2d 3e df a7 71 3d
       0.11771765 0.035568956 0.16982463 0.058997985
000220 e9 46 0e be 9f d7 70 3c bc 25 19 be 21 a0 8c 3d
       -0.13894238 0.014699846 -0.14955801 0.0686648
000230 b5 55 90 bb 49 a9 cf 3d 18 f4 33 3d 29 1c 03 bd
       -0.0044047483 0.101397105 0.043933958 -0.032009277
000240 0e 59 29 bd db 51 1a 3c ca bf 55 3d da 30 d1 bc
       -0.041344695 0.00941893 0.052184857 -0.02553599
000250 ea 76 04 be 34 75 f1 bc e3 e8 b1 bd 17 1f 30 3d
       -0.12935987 -0.029474832 -0.08686998 0.0429984
000260 ee b6 3c bd bc de a0 3d 49 54 d8 3d 1e 6b 8a 3d
       -0.046072893 0.07854983 0.10562951 0.06758712
000270 69 0f 84 3c 92 22 ef 3d 62 9e 12 3e f7 15 15 3e
       0.01612063 0.11676516 0.14318231 0.1455916
000280 fb be a3 bc 07 6e cf 3d 22 cf 3c bb 19 c5 72 bd
       -0.019988528 0.10128408 -0.0028809984 -0.05927
000290 75 09 c6 bd 9f ef 0a be 3d 18 48 3d 7f fd d3 bd
       -0.096697725 -0.1356797 0.04885124 -0.10351085
0002a0 31 94 0b 3e 21 e8 80 3d 8e cc c8 3d b1 11 7a bc
       0.1363075 0.06294275 0.09804641 -0.015263007
0002b0 4c 29 d9 3d ff 6c dc bc 83 37 91 3d 99 e9 13 3d
       0.1060358 -0.026907442 0.07090666 0.036111448
0002c0 c6 f2 44 bd 25 d2 a1 3d 68 48 9c 3d 3c 95 a8 3b
       -0.04808309 0.0790141 0.07630998 0.0051447432
0002d0 29 da 85 bd f4 1d 8d bd aa 54 63 3d 86 5e 1e 3e
       -0.065357514 -0.06890479 0.055500664 0.15465745
0002e0 9c ef 94 bd 4e 5c ce bd 83 78 00 bd 07 bf 2b 3d
       -0.07272264 -0.100761995 -0.03136493 0.041930225
0002f0 f0 38 5d bd ca aa 1d bd 27 e7 e1 bd 69 16 f4 3d
       -0.054009378 -0.038492955 -0.11030417 0.11918337
000300 18 8e a7 bc 96 8c a8 3d 48 00 cd bc 0b d1 0b bb
       -0.020453498 0.0822994 -0.025024548 -0.0021334316
000310 3e 9e de 3c 06 2d c6 bd d9 85 07 3e 7c 4f 8e bd
       0.027175065 -0.09676556 0.13234653 -0.06948754
000320 8e df de 3c b3 ab 5a bc 1a 77 f3 bc 0c a6 8a bd
       0.027206209 -0.0133466 -0.029719878 -0.06769952
000330 57 e6 63 bd 41 b9 ed 3d 8b 7b 22 3e 16 bf 7c bd
       -0.05563959 0.116076 0.1586744 -0.06170567
000340 69 b8 d1 bd e9 9f f4 3c 45 7e 72 bc 4e 21 c4 3d
       -0.102402516 0.029861407 -0.014800613 0.09576665
000350 b7 45 26 be 32 4a 8b bd b5 20 b2 bc bb b0 6f bd
       -0.16237532 -0.06801261 -0.021744112 -0.058518153
000360 e5 8f 30 be 06 4e 9e bd ff 5f 76 3d 98 86 f4 ba
       -0.17242391 -0.077297255 0.060150143 -0.0018655835
000370 76 c6 1c bc 91 9a 1e 3d 54 b8 29 be 87 f9 51 3d
       -0.009568801 0.038721625 -0.16574222 0.05126336
000380 e1 7d 9e 3d a8 5a 47 bd 5e 04 e3 3d 28 d1 65 bd
       0.07738853 -0.04867044 0.11084817 -0.05610767
000390 9b 69 92 bd d5 8b d9 3c 1b a8 97 3d ac 82 d7 3c
       -0.07149049 0.026555935 0.074051104 0.026307426
0003a0 4e f6 d8 bc 2b 48 20 3d 0e c9 bf 3c 13 3a 1f 3e
       -0.026484635 0.039131325 0.0234113 0.15549497
0003b0 a1 cd c2 bd 67 8a b4 bd e0 3d 03 be 17 6d 07 be
       -0.09511877 -0.08815461 -0.12816572 -0.13225208
0003c0 24 fe 22 3a b6 b5 e0 bc e3 c5 04 be 11 b6 83 3d
       0.00062176795 -0.027430397 -0.12966113 0.06431211
0003d0 11 81 44 3c 0d b4 c5 bd 4e da fb 3d 38 0c a1 3d
       0.011993662 -0.096534826 0.12297498 0.07863659
0003e0 83 bd 85 3c 85 ff 0e bd 3b eb 0c 3e 50 0c 32 bd
       0.016325718 -0.03491165 0.13761608 -0.043468773
0003f0 ab 98 95 bd 3d 7c 1a 3c d1 52 dd 3d 1d bd aa 3d
       -0.0730451 0.009429035 0.108068116 0.08336852

rnn.bias_ih_l0 f4 [192]
000000 bd 5b 9f 3d 3a 93 81 3d ed 5a 1c bd 7a b9 c9 3c
       0.077811696 0.06326909 -0.03817265 0.024624575
000010 6c 8a ef 3d 52 0c a8 3d 83 a8 97 bd 98 77 43 3d
       0.11696324 0.08205475 -0.07405188 0.047721475
000020 75 38 37 bd 50 35 59 3d a6 15 34 be c3 2d 62 3c
       -0.044731576 0.05302936 -0.17586383 0.013804856
000030 1e dc 7f 3b 5a 77 a9 bd ab 90 16 be 50 59 36 3d
       0.0039041112 -0.08274718 -0.14703624 0.04451877
000040 9e c1 a0 3d 25 b4 c8 3d e4 e7 71 bd dc ff 37 be
       0.078494295 0.09799985 -0.05905904 -0.17968696
000050 f9 d5 07 bd 7b f7 3e bd a0 06 1a bc d2 40 3e 3d
       -0.033163045 -0.046622735 -0.009400994 0.046448536
000060 9f e7 ae bd 72 ba 9c 3d 15 50 82 3d 59 44 3d 3d
       -0.08540272 0.07652749 0.06362931 0.04620776
000070 c8 b7 51 bd cc 02 4e 3d 20 37 d4 bc 20 dd 8e bd
       -0.051200658 0.050295636 -0.025905192 -0.0697577
000080 c5 1a b7 3d 99 4e 42 bd 4c 75 8d bd 03 d6 c9 bd
       0.08940653 -0.047438238 -0.06907138 -0.098552726
000090 a6 b8 df bd 37 50 6f bd b0 5c 83 3d 51 02 a9 3c
       -0.10923891 -0.05842611 0.06414163 0.020630987
0000a0 fe d7 36 be 8a 36 03 3b 52 2d 54 bd a7 52 ed bd
       -0.17855832 0.0020021521 -0.051801033 -0.1158803
0000b0 2f 33 07 be 7c 5e b5 bd f9 b6 ee bd f2 86 d4 3d
       -0.13203119 -0.08855912 -0.11655993 0.10377301
0000c0 1a 4b e4 bc c5 7a 5b 3c 93 97 1c 3d 5a d5 2d be
       -0.027867842 0.01339597 0.03823049 -0.16975918
0000d0 ea 58 c2 3c ba 79 b1 bd f8 31 9e 3d 57 c2 bf 3d
       0.023724038 -0.086657956 0.077243745 0.09363239
0000e0 b9 22 bc 3a 60 4f 87 3a 6f f1 be bd 83 17 91 bd
       0.001435361 0.0010323338 -0.093233936 -0.07084563
0000f0 df 32 ba bc aa 45 7e bc f2 3f 39 3c 74 e7 12 be
       -0.022729335 -0.015519539 0.01130675 -0.14346105
000100 86 94 0e be 9d 65 df bd e6 37 f0 3a 3b 02 8f bd
       -0.13923845 -0.10908053 0.0018327206 -0.06982847
000110 42 ba fa bd 09 77 d4 bb 5d 74 65 be ea 73 ce 3c
       -0.12242557 -0.0064839167 -0.2240767 0.025201757
000120 0a 9e 0a be af c3 23 be 29 14 fc bd e1 06 83 be
       -0.1353685 -0.15992616 -0.12308533 -0.25591186
000130 97 e5 88 bd 45 5b 3d be 33 9d 47 be a9 91 2b bd
       -0.06684416 -0.18491848 -0.1949356 -0.04188696
000140 53 70 85 be 93 37 4a be 03 63 10 be 82 dc 6b be
       -0.2606226 -0.19747762 -0.1410027 -0.23033336
000150 76 1d 07 3d 12 51 02 3c a8 6c 33 3d 18 fb 24 be
       0.03298708 0.007953899 0.043804795 -0.1611141
000160 a8 1d 37 bb ea 42 a8 bd e4 ae 4d be ba e4 bf bd
       -0.002794126 -0.08215888 -0.20086247 -0.09369798
000170 25 ef d5 bd c3 2f 2a be 8b 33 1f be 2c c8 71 be
       -0.10446004 -0.16619782 -0.15547006 -0.23611516
000180 d2 46 18 be 14 0f 8a be b8 49 8f be 55 b4 bc bd
       -0.14870766 -0.2696463 -0.2798593 -0.09214083
000190 f4 b7 ef bc 8f 2d 1e be e1 59 ab bd a7 b4 4d be
       -0.02926252 -0.15447067 -0.083667524 -0.20088445
0001a0 97 85 bb bd ca 28 41 be 46 fd 2e be 13 79 0c 3e
       -0.091563396 -0.18863216 -0.17088804 0.13718061
0001b0 b6 68 37 be 9c b5 0d 3e b0 73 ac bd aa f6 68 be
       -0.17911038 0.1383881 -0.08420503 -0.22750345
0001c0 95 40 42 be 0c e6 5f be aa ba 1e be c7 e3 39 be
       -0.18969949 -0.218651 -0.15500894 -0.18153296
0001d0 98 87 0d 3b 80 ea 26 be 92 2c 9b be 65 b5 a1 bd
       0.0021595713 -0.16300392 -0.30307442 -0.078959264
0001e0 0b 8d d7 bd 9a 21 22 be f9 b1 38 be 44 14 9b be
       -0.10524949 -0.1583313 -0.18036641 -0.302889
0001f0 8e 70 3e 3d 6f 0b 69 be aa 1f 6b be e4 5c a2 bd
       0.04649406 -0.22758268 -0.22961298 -0.07927874
000200 b1 22 f6 bd b1 a4 b5 3c 87 69 de 3c 1c 7a cd bd
       -0.120183356 0.022173258 0.027149929 -0.10033056
000210 d7 d8 0d 3d 85 9d 8f bd ff df 99 3d 63 f1 70 bd
       0.034630623 -0.07012466 0.07513427 -0.058823954
000220 16 b8 95 3b 17 2b 5b 3d b8 90 b0 b7 9e 58 a8 3d
       0.004569064 0.05350789 -2.1048225e-05 0.082200274
000230 03 db ed 3d 94 7f c8 3d ef e3 ee bd 69 5a cd bd
       0.11614039 0.097899586 -0.11664569 -0.1002701
000240 f0 d2 01 3c 08 78 96 bd 2e 20 41 be 02 28 d3 bb
       0.007923827 -0.07347113 -0.18859932 -0.0064439783
000250 e0 db 00 be a1 70 43 3d 1c 36 c1 3c af b5 ea bd
       -0.12583876 0.047714833 0.023585372 -0.11460435
000260 34 7c 84 3c e3 2c a5 bd f2 3d 0d bd b3 59 17 3d
       0.016172506 -0.08065202 -0.034482904 0.03695078
000270 23 8b ae bc 4d a4 45 bd 5c ad 85 3b 2e c1 fc bd
       -0.02130658 -0.048252393 0.004079504 -0.123415336
000280 13 14 2a 3d ed 7a 55 bc 0f 65 7e bd 30 ca 8b 3a
       0.04152305 -0.013029796 -0.062108096 0.0010665115
000290 0b f8 a5 bd 80 ac 38 bc 44 28 63 bc 6d 61 3a bb
       -0.08103951 -0.011271596 -0.013864581 -0.0028439418
0002a0 f8 aa ed 3d 47 bd 88 3d 6c 03 0d bd b2 ce f7 3c
       0.11604875 0.06676727 -0.03442709 0.030249927
0002b0 80 2d be 3d 5c 1a 9f bc 6b d8 77 bd 38 c5 d9 3c
       0.09286022 -0.019421749 -0.060509127 0.026583299
0002c0 1b c4 90 3c 26 d2 02 be 1c 03 f0 bb 4f 08 ec 3b
       0.017671635 -0.12775478 -0.0073245894 0.007203139
0002d0 1d 1c f8 bd d3 02 ab 3d 07 aa 25 be 42 21 d3 3d
       -0.12114737 0.08350148 -0.16178142 0.10309078
0002e0 4c 6a 9c 3d 4d a9 81 bd a7 5d c3 bd 7a 27 90 3d
       0.07637462 -0.0633112 -0.09539347 0.070387796
0002f0 df c4 e9 3b 9b d9 04 3d 32 91 69 bc 35 77 82 3c
       0.0071340646 0.032434087 -0.014255809 0.015925983

rnn.bias_hh_l0 f4 [192]
000000 5c 3e 5f bd 36 2d d9 bd 14 ed 0d 3d 73 b1 56 bc
       -0.05450283 -0.106043264 0.034649923 -0.013103831
000010 70 ce c8 bc 3b 8f 77 bd 29 c8 03 be 18 d2 36 be
       -0.0245125 -0.06043933 -0.12869324 -0.17853582
000020 9c e0 bc 3c 40 0a 4c 3d 02 f6 fe 3c da e4 14 be
       0.02305632 0.049814463 0.031123165 -0.14540425
000030 bc 54 a9 ba 56 d5 ec bd d0 0c ed bd de cc 74 bc
       -0.001291893 -0.11564128 -0.115747094 -0.014941422
000040 de 98 1b bd 12 3f d7 bd d2 02 2c 3e 4e 8f 29 3d
       -0.037987582 -0.105100766 0.16797951 0.04139643
000050 75 f6 17 3d d1 3d 06 be 78 9a 16 3b 8a cf 0d bd
       0.037100274 -0.13109519 0.0022980254 -0.034621753
000060 81 7f ba bd 5b 2e 37 bc e1 38 66 bd 5f bd ea bd
       -0.09106351 -0.011180486 -0.056206588 -0.11461901
000070 16 9e 82 bc 11 fc fb bc 3f 8e 3a bc 78 03 9b bd
       -0.015944522 -0.030759843 -0.011386453 -0.07569021
000080 fe 47 92 bd 27 90 d9 bb 01 16 29 3d 33 4f ef bc
       -0.07142638 -0.0066394988 0.04128075 -0.02921257
000090 e1 7f b8 bd 4d 72 a8 3c f7 8b 98 3d 38 b0 53 3d
       -0.09008766 0.020562315 0.07448571 0.051681727
0000a0 97 e9 c4 3c 53 df 88 bd 81 3e 18 be ae 56 f0 3c
       0.024037166 -0.06683221 -0.14867593 0.029338207
0000b0 cd 86 d8 bd c4 f0 f6 3b 0b c4 02 be 69 ea b1 bd
       -0.10572586 0.0075360257 -0.12770097 -0.08687288
0000c0 6b ba c0 bd 39 f3 06 3d ce 6b 8f bd f8 3c 94 3d
       -0.094105564 0.0329468 -0.07002984 0.07238191
0000d0 f1 31 b2 bd 90 d6 c5 3c 80 70 ed 3d fc 2f 03 bd
       -0.08700932 0.024150163 0.11593723 -0.032028183
0000e0 93 40 72 bd 95 b5 3f bd 85 60 88 3d f5 ee bb bc
       -0.059143614 -0.04680403 0.06659035 -0.022941092
0000f0 76 ce 36 bd ed 7f 5b bc b9 32 36 3e d3 37 ea bb
       -0.04463049 -0.013397199 0.17792787 -0.007147768
000100 3f a8 80 bd 24 21 b0 3c de 4f 06 bc 6b 30 25 bd
       -0.062820904 0.021500178 -0.008197753 -0.040329378
000110 bf 00 59 be 58 58 9e bd 1d 5c 58 bd 7d 22 69 bc
       -0.21191691 -0.07731694 -0.05282222 -0.014229414
000120 d4 7e 96 bd 0d f5 c5 bd 8a a9 81 be 7e ca 98 be
       -0.07348409 -0.0966588 -0.2532466 -0.2984199
000130 f6 26 75 bd 5b 23 15 be 5e c9 06 be 71 1c 90 3c
       -0.05985161 -0.14564268 -0.13162753 0.017591687
000140 b9 f4 16 be 6b d4 0e be f7 56 89 be 87 39 54 bd
       -0.14741792 -0.13948219 -0.2682416 -0.051812675
000150 6b b9 f5 bc da c0 74 bd fe e4 20 be bc 8c 69 be
       -0.02999564 -0.05975423 -0.15712354 -0.22807592
000160 51 23 98 bd f4 5e ad bd 54 d5 42 bd 7e a0 e7 bd
       -0.07428611 -0.084653765 -0.047566727 -0.11309908
000170 42 d6 09 be 4c f1 72 be ff 97 28 be 28 b7 58 be
       -0.13460639 -0.2372486 -0.16464232 -0.21163619
000180 3d 6a 0d be 14 07 74 bd 59 bd 3c be f7 55 54 bd
       -0.13810058 -0.059577063 -0.18431605 -0.051839795
000190 a6 48 19 be e3 d6 0f be b1 6c bc bd 78 61 11 be
       -0.1496912 -0.14046817 -0.09200419 -0.14197338
0001a0 da 65 68 bd 78 78 4a be 6c 40 dc bd a9 0a 65 3d
       -0.05673776 -0.19772518 -0.10754475 0.05591837
0001b0 59 5a 38 be a7 23 d7 3d 52 58 2b 3c 20 c7 87 be
       -0.18003215 0.10504847 0.010458069 -0.26519108
0001c0 6a bb 51 be f1 13 51 be c6 51 0c be e5 90 39 be
       -0.20481649 -0.20417763 -0.13703069 -0.18121679
0001d0 fc 08 ee 3b c9 aa 48 be c3 25 86 be d4 c3 91 bd
       0.0072642546 -0.195964 -0.26200685 -0.071174294
0001e0 f4 c5 7d be f8 3a 87 be a6 26 09 be 8d 4e 5a be
       -0.24782544 -0.26412177 -0.1339365 -0.21319027
0001f0 c7 e9 d6 3a 1d 85 f9 bd 99 2c 70 bd 27 af 40 be
       0.0016396575 -0.121835925 -0.05863628 -0.18816815
000200 95 1a 5f bd cd a2 81 3d 7a ed 8b 3d f5 5a e8 bc
       -0.05446871 0.0632988 0.068324044 -0.028363684
000210 53 d5 8f 3d af a2 d1 bb f9 3b 21 3e e5 f1 8a 3d
       0.0702311 -0.006397567 0.15745534 0.06784419
000220 f8 0b 8e bd df 5f 23 3e 90 35 5f bd 3b 4f 4e 3d
       -0.069358766 0.1595454 -0.05449444 0.05036853
000230 57 13 bf 3d ec 4a 1e 3d e4 58 14 bd ab 6c c3 bd
       0.09329861 0.03864567 -0.036217585 -0.09542211
000240 5a 5d 80 3d 32 07 2a be 58 9c 15 be 7c 0e 54 3d
       0.062678054 -0.16604307 -0.14610422 0.051771626
000250 01 f1 98 3c 3b 96 e8 3d 84 ba 2f 3e d3 49 30 3e
       0.018669607 0.11356779 0.17160994 0.17215662
000260 ae 60 fa bb b5 fa e2 bd 0a 18 5d bc 92 2b 80 bd
       -0.0076409196 -0.11082975 -0.013494501 -0.062583104
000270 18 93 c7 3d a4 a7 49 be 34 9b b9 bc 75 1b 73 bc
       0.09744853 -0.19692856 -0.022657014 -0.014838089
000280 21 c4 e3 bc d7 a7 b4 bd 2f cc 96 bd 2a b0 c4 3d
       -0.027803482 -0.088210754 -0.07363164 0.09603913
000290 cb 2e 32 3d e9 9d b9 bd 6e 02 2a be 5f 64 63 bd
       0.043501657 -0.09063322 -0.1660249 -0.055515643
0002a0 6a 1e b1 bd be 74 57 3c 1a 68 3b be 7a e4 1d bd
       -0.08648379 0.013150392 -0.1830143 -0.03854797
0002b0 16 d4 1a 3e 23 75 63 bd 09 26 05 bd eb 3c 59 bd
       0.15119967 -0.055531632 -0.032506976 -0.05303661
0002c0 55 b8 5a 3d bf b2 85 bd 65 84 2b 3e a6 d0 ec bd
       0.05339845 -0.06528234 0.16749723 -0.11563234
0002d0 1e 3e 4f 3d c6 b0 c3 3c e4 db 8b 3d 7c 7a 43 3e
       0.05059635 0.023888003 0.0682905 0.19089693
0002e0 aa bc 37 3d 33 36 27 3e 85 c9 18 be 52 2a 5f bd
       0.04485766 0.16329269 -0.14920624 -0.05448372
0002f0 02 f7 b0 bc ce d5 9b bd a6 02 38 3e 13 b5 bc bc
       -0.021602158 -0.076091394 0.1796976 -0.023035562

fc2.weight f4 [64, 64]
000000 b2 4f 27 3d e7 68 58 3d 96 97 47 bd c8 8f 37 bd
       0.040847488 0.052834418 -0.048728548 -0.044814855
000010 66 25 92 3d d6 cd bb 3d 1d 21 71 3d 09 bd aa 3d
       0.071360394 0.091701195 0.05886947 0.08336837
000020 94 8b a4 bd 99 1f 22 3a 59 fb 88 3d 66 0c e2 3d
       -0.08034435 0.0006184518 0.06688566 0.11037521
000030 0c 6e 7a 3d 44 96 0e bd 58 60 99 bd 77 e1 cb 3d
       0.061140105 -0.034811273 -0.07489079 0.099551134
000040 b8 60 2b 3e 39 9e de bd 25 67 31 bd bf f9 cb 3c
       0.16736114 -0.10870022 -0.043311257 0.024899362
000050 a0 e9 51 3d b0 e5 d0 bd e4 53 97 3d 75 3b e6 3d
       0.051248193 -0.102000594 0.07389048 0.11241809
000060 b7 62 01 3e 2c be 9d bd 76 9d a8 bd 9c d1 f6 bc
       0.12635313 -0.07702288 -0.08233158 -0.030129246
000070 85 2b 9c bc 9d 0d 54 3d e7 50 2b 3d 51 20 12 3d
       -0.01906372 0.051770795 0.0418252 0.03567535
000080 3b 68 21 3d ae ed 43 be 38 86 0f be 8d 42 81 bd
       0.039406043 -0.19133636 -0.14016044 -0.06311522
000090 2d 62 8b bd 1c a0 41 be b4 3a e2 3d d3 68 05 be
       -0.06805835 -0.18908733 0.11046353 -0.13028269
0000a0 fb da ac 3d 49 90 72 3d 67 f7 b7 3d 84 c1 bf bb
       0.08440205 0.059219632 0.08982735 -0.0058519263
0000b0 a8 33 ad 3d 81 04 46 3d fd 55 cf bd 2c ea 9b bc
       0.08457118 0.04834414 -0.10123823 -0.01903256
0000c0 3b 32 19 bc 76 ad b0 3d 18 d3 30 3e b9 20 88 bd
       -0.009350355 0.08626835 0.17268026 -0.06646866
0000d0 9c 28 51 3d af d1 b2 3d 41 22 2a bd 2b d9 9a bd
       0.05106412 0.087314 -0.041536573 -0.07560953
0000e0 41 98 3f 3e b4 dd ae 3d 5d 6d 9b bc d5 63 aa bd
       0.18710424 0.0853838 -0.018973047 -0.08319823
0000f0 8c 96 84 bd ab ae e0 bd 1b b2 05 3e 72 e6 b9 bc
       -0.06474027 -0.10970815 0.13056223 -0.022692893
000100 a9 2e e6 bd 28 80 d7 bd 19 f6 6f bd 70 3e 85 3d
       -0.112393685 -0.10522491 -0.058584306 0.0650605
000110 b3 42 ac 3a f2 3a d3 3d 5c 45 1c bd 79 f9 d7 3b
       0.0013142437 0.10313977 -0.038152084 0.0065910188
000120 9e f7 99 3d 57 37 35 3d 3b a2 9c 3d ef 7a 2d bd
       0.07517932 0.04424223 0.076481305 -0.042353567
000130 ea 32 f1 bd 9f ef 35 bd a3 18 85 3d a1 3b 83 3d
       -0.11777289 -0.044417974 0.0649884 0.06407858
000140 4d 2c 2d 3d dd 0f e0 bd 59 6e d4 3d 56 10 75 3d
       0.042278577 -0.10940526 0.1037261 0.059830032
000150 f8 51 40 3c 3d 28 dd 3d a7 43 80 3d 8b 3a 51 bd
       0.011738293 0.107986905 0.06262904 -0.05108122
000160 2f ce 45 3d 6a fa 03 3e a0 be ac 3d 97 33 c2 3d
       0.048292335 0.12888494 0.08434796 0.09482496
000170 9d 11 b8 3c 4d 68 f7 bd de ea 5c bd b9 c7 65 3d
       0.022469336 -0.12080441 -0.053934924 0.056098673
000180 ee 9e 9c 3d 72 99 0f bc d2 34 50 bc cb 72 f6 bc
       0.07647501 -0.008764612 -0.012707906 -0.030084034
000190 76 80 d3 bc 49 cd 49 3d ac cb 3f bc 4b 94 a2 bd
       -0.02581809 0.04926804 -0.011706274 -0.07938441
0001a0 c8 25 8b bb 81 88 9d bc 04 a4 dd 3d 99 ac d0 bd
       -0.0042464472 -0.01923013 0.10822299 -0.101891704
0001b0 96 aa 8b bd b6 f7 fe bd 4d 84 8b bd 48 1a dd 3d
       -0.06819646 -0.12449591 -0.06812344 0.107960284
0001c0 71 7d 19 3c 84 a4 fd bc 2e e1 91 3b ed 53 de bd
       0.0093682865 -0.030962236 0.0044518923 -0.10855851
0001d0 5f d8 90 3c 07 b0 ec 3b 73 a7 91 bd 2d 1e ec bb
       0.017681299 0.0072231325 -0.071120165 -0.0072057457
0001e0 7c fd 95 bd 9d 10 f6 3d 75 8c 73 bc 5d 22 60 3c
       -0.07323739 0.120148875 -0.014865031 0.013680068
0001f0 9e 9d 93 3d 30 d8 ef 3d 20 d0 35 3c 83 41 bf bd
       0.072077975 0.11711156 0.011096984 -0.09338667
000200 c7 8f 22 bd b8 a2 35 bc 4a a6 3e 3d c4 09 59 3d
       -0.039687898 -0.011086158 0.046545304 0.05298783
000210 7b 0d f1 bd 3b be 25 be 55 af c6 bc ef ee e8 3d
       -0.11770149 -0.16185848 -0.024253527 0.11373698
000220 ed 7c d1 bc 0d b4 47 bd 5b d8 0a be f0 a3 c4 bc
       -0.025572265 -0.048755694 -0.13559096 -0.024003953
000230 b4 3e dd bd 54 d2 f8 3d ea 03 f0 bd 4c 55 01 3d
       -0.10802975 0.12149492 -0.117194965 0.031575486
000240 ae be 86 bb 45 fd 14 bd 63 b7 67 3d c3 c2 8c 3b
       -0.0041120863 -0.03637435 0.056571376 0.0042956783
000250 0c 14 cc 3c 51 41 e1 bd 5d 7b 12 be e4 9a 1f bc
       0.024911903 -0.10998786 -0.14304872 -0.009741519
000260 70 f6 9a 3d c7 2f 3c bc 4d 08 03 be e4 0c 3e 3d
       0.075665355 -0.011486 -0.12796135 0.046399012
000270 98 cb 22 be dd 0b 78 3c be 0a aa bc 41 fb b4 3d
       -0.15897977 0.015139547 -0.020757075 0.088369854
000280 15 ea a6 bd 24 10 97 3c ee bf 19 3d 27 93 52 bd
       -0.08150116 0.018440314 0.037536554 -0.051409867
000290 bf 19 2a 3d 97 35 87 bd 50 1d 04 be 5e 76 68 3a
       0.04152846 -0.06602018 -0.12901807 0.0008867736
0002a0 84 e0 90 bd 9b 42 f8 3d 4c 1c 06 be 27 b8 09 be
       -0.07074073 0.12122079 -0.13096732 -0.13449155
0002b0 78 1a 5f 3b a9 65 14 bc e7 51 3c 3e dc e5 72 bd
       0.0034042876 -0.009057441 0.18390618 -0.059301242
0002c0 c2 4a a6 bd 33 01 6d bd 51 5d a3 bd d6 8a c5 bb
       -0.08119728 -0.05786247 -0.07976783 -0.0060285134
0002d0 64 c3 63 3d d5 b1 ee 3d 2a fa 77 bd 8c ad 60 bd
       0.05560626 0.116550125 -0.06054131 -0.054853007
0002e0 4a 2c 65 bd 1d c9 01 bd 29 da 50 3c 7f 73 9c 3d
       -0.05595044 -0.031685937 0.012747326 0.07639217
0002f0 45 a3 f0 bc 39 83 c4 3d 07 35 7f bd 9f 03 9a 3c
       -0.029374728 0.09595341 -0.06230643 0.018800555
000300 f9 c0 e2 bd 07 0d 00 3e 83 ab b4 bd 54 ea a8 bc
       -0.11071963 0.1250497 -0.08821776 -0.020619549
000310 04 14 e9 3c 00 98 10 3d 11 b2 34 bd 4f 20 aa 3b
       0.028451927 0.03530121 -0.04411513 0.0051918398
000320 60 6b a0 bd 17 13 c5 3d 08 e2 c8 bd 39 ef 43 3e
       -0.0783298 0.09622782 -0.09808737 0.19134225
000330 90 81 54 3e 59 e5 32 be 06 32 96 3c 45 44 d3 bb
       0.20752549 -0.17470302 0.0183344 -0.0064473473
000340 4f 5e f5 3d 77 38 bc bd 38 33 81 bd 41 f5 03 be
       0.119808786 -0.09190457 -0.06308597 -0.12886526
000350 76 76 db 3c 7b 74 08 bd f6 b5 18 bd b2 24 42 3e
       0.026789885 -0.03331421 -0.037282906 0.1895931
000360 c4 81 fe 3d 41 6b fe bc b0 95 55 3d 21 2a 10 3d
       0.124270946 -0.031057002 0.052144706 0.035196427
000370 70 a9 04 3d fe b0 25 be eb 9d 4d 3d 0c 34 fd bc
       0.03238815 -0.16180798 0.05019943 -0.030908607
000380 47 eb 13 bd 02 f0 db bd 32 4a a8 3c 09 d8 11 3d
       -0.03611305 -0.10739137 0.020543192 0.035606418
000390 46 a0 1d 3d c0 8f 87 be 54 62 2d 3b 2b a9 28 bd
       0.038482927 -0.2647686 0.0026456313 -0.041176956
0003a0 63 38 b7 bd c8 ee 0c 3e 55 e4 17 3d b7 c5 4d 3d
       -0.08946302 0.13762963 0.03708299 0.050237384
0003b0 05 0b 95 bd 79 81 05 bd 32 2b 81 bd 43 42 e4 3c
       -0.072774924 -0.032594178 -0.06307067 0.027863627
0003c0 67 41 de bc f4 c5 e0 bd c0 bc 2a 3e 6c 59 36 be
       -0.027130796 -0.109752566 0.16673565 -0.17807549
0003d0 da 92 53 3d 79 ac 1c 3d ac 5d 17 be a4 ed d2 3d
       0.05165372 0.03825042 -0.14781827 0.102992326
0003e0 91 f9 2f 3e ae 06 96 3d e8 d6 4b be 79 77 dc bc
       0.17185046 0.07325493 -0.19906199 -0.026912438
0003f0 48 c0 b2 bd 3f 66 a2 bd e9 9f 3b bc ab 8b f4 3c
       -0.08728081 -0.07929658 -0.0114517 0.029851755

fc2.bias f4 [64]
000000 ee 6d 7a bd c9 e8 8b bd 00 92 44 bd f9 1e f1 3d
       -0.061139993 -0.068315096 -0.0479908 0.11773486
000010 6c fd b2 bd 13 7a cd 3d 5d 80 09 3e d9 c4 af bd
       -0.08739743 0.100330494 0.13427873 -0.085824676
000020 1b 4a 93 3d 1a 5e 8e bd 32 7e 86 3d e8 e9 19 bd
       0.07191869 -0.06951542 0.065670386 -0.037576586
000030 08 dd 83 bc cf 33 09 3e f4 cb 94 3d 9d a3 33 3d
       -0.016096607 0.1339867 0.072654635 0.043857206
000040 2b 37 73 bd 3f 22 0f be 31 8f d2 bb 71 cd 01 be
       -0.059378784 -0.13977908 -0.006425761 -0.12676026
000050 84 bf 61 bd df ef 90 bc b2 1d d6 3d 32 12 87 bd
       -0.055114284 -0.017692504 0.10454883 -0.06595267
000060 00 2c dc 3d 4d 8f ee 3d c8 bf 61 3d e6 cb b7 3d
       0.1075058 0.11648426 0.055114537 0.089744374
000070 7f 8d 70 bd 85 55 15 bd 7f a2 14 be 56 a5 f1 3d
       -0.05872869 -0.03645851 -0.14515112 0.117991135
000080 17 6f 08 3d ac a4 5c bc 30 36 c3 3d 0e c4 05 3e
       0.03330907 -0.013466995 0.0953182 0.1306307
000090 a8 eb 90 bd bc dd 9f bc b6 9e fb 3d fb 34 bc 3d
       -0.07076198 -0.01951491 0.12286131 0.09189793
0000a0 5c 7f 58 bd b7 98 41 be c9 e8 3f bc f9 f8 93 3d
       -0.052855834 -0.18905912 -0.011713215 0.07225222
0000b0 50 da 45 3d e2 ec 02 3e bf 6e 03 bd 8d f6 dc 3d
       0.048303902 0.12785676 -0.032088038 0.10789213
0000c0 77 e3 0d bd fa d9 60 bd ab 67 7d 3d 8b 64 3e 3c
       -0.034640756 -0.05489538 0.061866444 0.011620651
0000d0 12 45 13 3e aa d0 b7 bd bc fc bf bd 65 e0 6b 3d
       0.14381817 -0.089753464 -0.09374377 0.057587046
0000e0 3e d3 46 3d 28 44 f8 3d f7 18 77 3d ea fc b8 3d
       0.0485413 0.12122375 0.060326543 0.090326145
0000f0 41 4e 13 bd 72 2d c8 3d 53 26 f9 3d 51 cf 3a bd
       -0.0359633 0.09774293 0.12165513 -0.04560787

fc3.weight f4 [2, 64]
000000 51 fe cb 3d 3f 71 83 bc 34 6a ee 3d 93 bd 07 3e
       0.099606164 -0.01604521 0.116413504 0.1325591
000010 da ad 9d 3d f0 0b 05 be 4e 5c 93 3d 70 05 aa 3d
       0.07699175 -0.12992835 0.0719534 0.08301818
000020 84 7f 25 3e cb 04 a7 bd f6 3f 82 bd 60 0f 16 bd
       0.16161925 -0.08155211 -0.06359856 -0.036635756
000030 90 32 25 3e cd ae c9 3d 1c a7 9f bd 16 85 0c 3e
       0.1613257 0.09847794 -0.077955455 0.13722643
000040 a7 2c 21 3d 32 04 46 3e 0c 9e 88 3d 38 14 af 3d
       0.039349224 0.19337538 0.0667077 0.08548778
000050 4a a2 e4 3d 1d 5d 6e be ad 8e ba bd 99 04 86 3d
       0.11163767 -0.23277707 -0.091092445 0.06543846
000060 55 7f f8 bd cf fd 03 be cd 2e 27 be 67 b2 cf 3d
       -0.12133662 -0.12889789 -0.16326447 0.101414494
000070 41 a1 f1 bd d9 28 f3 3d 1a 98 54 be 25 fc e8 bd
       -0.11798335 0.118730254 -0.20761147 -0.11376218
000080 7b 58 dc bd 97 9c c6 3d 86 c5 33 be a8 28 e9 3d
       -0.10759064 0.09697836 -0.17555818 0.11384708
000090 9d 3d d9 bd e6 4c c5 3d f8 1c d8 3c db f1 bf 3d
       -0.10607455 0.09633808 0.026381 0.09372302
0000a0 83 a6 e3 bd 8d 89 96 be 88 15 f0 bd 4c 04 db 3d
       -0.11115744 -0.29401818 -0.11722857 0.10694179
0000b0 a0 66 47 bd 6a be 04 3e dc fd 4e be bd 8a 2f 3e
       -0.048681855 0.12963262 -0.20214027 0.17142768
0000c0 ff 6b c1 3d 2f f7 b7 3d e4 20 d2 bd ad 13 80 bd
       0.09444427 0.089826934 -0.1026018 -0.06253753
0000d0 52 91 52 bd 0a f5 ca 3d 79 6f 01 3c 38 cb 70 bd
       -0.05140812 0.09910019 0.007900112 -0.058787555
0000e0 fa cb 02 3e a8 76 d0 bd ec 3c b2 3d 31 d9 71 bd
       0.12773123 -0.10178882 0.08703026 -0.05904502
0000f0 53 66 0c be 3b f3 33 bd b5 84 25 bd b9 20 c3 3d
       -0.13710909 -0.043933135 -0.040409762 0.09527726
000100 d9 cd 00 bd 2f db d0 bd e1 0d b8 bd 36 b5 21 be
       -0.03144631 -0.10198056 -0.08987022 -0.15791783
000110 9f ba 29 3d 66 56 58 3d cc 40 24 be 77 87 cb 3c
       0.04143774 0.05281677 -0.16040343 0.024844868
000120 a7 19 03 be 33 14 a7 3d 50 07 b9 3d 15 01 20 be
       -0.12802754 0.081581496 0.09034598 -0.15625413
000130 6d 6f 24 bd 22 87 f9 bd 34 1c 0a 3e c6 8f 89 bd
       -0.040145326 -0.12183978 0.13487321 -0.06716876
000140 dc 85 fe bd e8 c8 bb bd 99 3c 33 3d 7a 78 8e 3d
       -0.124278754 -0.09169179 0.043758962 0.06956573
000150 22 23 af bd 85 80 6f 3e 4f d5 95 3d cc d4 62 3c
       -0.08551623 0.2338887 0.07316076 0.01384468
000160 96 fc b3 bd f7 c7 fe 3d 94 b8 75 3d 7e e9 cd bd
       -0.08788411 0.12440484 0.05999048 -0.10054301
000170 44 27 dc 3b 54 84 15 be 11 bb 90 3d 30 c5 14 3e
       0.006718548 -0.1460126 0.0706693 0.14528346
000180 82 f9 56 3c 4c 1e 55 bd 2d d4 fe 3d a2 df ec 3a
       0.013121011 -0.052030846 0.12442813 0.0018072019
000190 5c e0 94 3d 25 2b ed bd b7 72 0d 3e 97 c3 ac bb
       0.07269356 -0.11580495 0.13813291 -0.0052723396
0001a0 ac 6a 54 bd 21 7c 4a 3e 37 fa c3 3d 02 5c 44 3d
       -0.051859543 0.19773914 0.09569209 0.047939308
0001b0 62 ef 22 3e 02 77 3a be 1c 4e 27 3e cb 35 55 bc
       0.1591163 -0.1820946 0.1633839 -0.0130133135
0001c0 29 a5 c9 bd 92 32 d8 bd 2d da 9d 3d dd 6c a7 3d
       -0.09845955 -0.105565205 0.07707629 0.08175061
0001d0 1b d6 9a 3d a8 21 c4 3d 92 8f 41 bc 62 ad 71 3d
       0.075603686 0.09576732 -0.011814015 0.05900324
0001e0 d9 c7 4c bd 94 b4 4e 3c d2 20 3a be 44 06 15 bd
       -0.049995277 0.012616295 -0.18176582 -0.03638293
0001f0 03 26 11 3e e3 aa 3b 3c 91 ab fb 3d 7c d0 d4 3d
       0.14174657 0.011454317 0.12288583 0.10391328

fc3.bias f4 [2]
000000 43 e8 4a bd 89 50 6b bb
       -0.04953791 -0.0035906157
