model/3node_SL_3.pt (torch, 127559 bytes, 10 tensors)

fc1.weight f4 [64, 30]
00000000: e224 1ebe 96bb 21be a22e 8cbd 6221 6a3d
00000010: 048e 00be ed4e dcbd 0030 b1bc 2cba 2cbe
00000020: da7f 513d 220a 1ebe 76fb db3d 20da 093d
00000030: 2f0a 2bbe f676 4ebd 0966 d3bd ecdf 55bd
00000040: ea4b 09be a7c7 9dbd a690 003e b8ed e83c
00000050: f80f d33c 4b0a 86bd 5ca1 21be 6672 7abd
00000060: ca07 593d 0820 31be 9c32 333d 8810 b2bc
00000070: 1f51 24be a29b 613d e410 acbd ef53 e9bd
00000080: 2238 12be c7e6 5e3c 3fa9 95bd bdad 713d
00000090: 5541 e2bc 6c3a 06bd 7940 ebbd 2063 dbbd
000000a0: edd5 b9bd 59e0 e9bc 17a4 08bd 50d0 a0bd
000000b0: 5667 abbd cd40 c53d f6ab 4f3d 9923 9fbd
000000c0: f006 62bd 604b 103e 1a39 dabd 3ba0 953d
000000d0: 2e72 0abe 8331 21bd 9dc1 babc d0f5 aabd
000000e0: 75f9 f83b 6845 7d3d 37d3 4dbe 2644 dbbd
000000f0: 4acb b93c 654e 853d 8d1b 73bd af9e 93bd
00000100: dc27 e03c 9441 49bd 9b68 163c 9605 173d
00000110: 1233 d5bd 4a4e 03be 1bee 4a3e 320d 033e
00000120: c668 413d 4c4c af3d f8b1 17be 0088 ab3b
00000130: 0ae7 5f3e 0b33 673d c2e4 41be 784c 023e
00000140: c475 c03d a69a d13d df01 153e 7434 65be
00000150: addd acbd 7be2 303e f273 4c3d b046 86bd
00000160: 2523 29bd 2f54 f9bd 4981 eb3d 3ad3 a5bd
00000170: 91f3 50bd 4482 283e 0983 c4bc 29f7 d63c
00000180: 27ee c53d 81ab 183e 7455 c43d c099 de3b
00000190: 030b 733c 1267 473e 5cb4 283e e568 043e
000001a0: 93f9 91bb 9d6a 713d 460f adbd 3cdb 6b3e
000001b0: 7af5 cb3d 14f4 fe3d 3540 fd3d e2d6 bfbd
000001c0: 1bfe 2fbe d915 9a3e e6a3 1f3e a514 d1bd
000001d0: d3d9 673d dae1 6dbd 8e28 60bd 4b44 8f3d
000001e0: 3418 383e 04d7 113e ca4d 253e d88b b3bd
000001f0: c271 efbd a767 5f3d bcdb 9dbd 56c9 903c
00000200: bbf1 383d 5ee2 ad3d fa45 39be 1b42 8a3e
00000210: 5e81 e93d b311 d8bd a6c7 24bd e1f7 12be
00000220: 6e7f 8ebd 1570 4a3e 8f74 33bd 9528 df3d
00000230: 4183 f0bb ee09 9e3d 9cad ab3d 3f4e 393e
00000240: 31d7 9d3e 5a94 79bd cde8 94bd 73e1 cdbc
00000250: 5850 91bd 3d53 a43d a7bc 9d3d d03e 5abc
00000260: e781 ff3a 5a60 213e f70e aa3d 6973 23bd
00000270: 8821 3b3e 68bc 08be a87d 71bd 186a 3a3e
00000280: 5427 c23d d650 1a3e 717e 30bd d29c 33bd
00000290: 4ce5 abbd c915 00bd 5e6c 46be 6e8c 323e
000002a0: ecc6 a93d 4a25 d53d 2606 613e f5fe 573e
000002b0: aa6e 0dbe ee33 8e3d 6f30 863e bacc 43be
000002c0: 23fe e93d a42c 593e 945b 4dbe ed9f 893e
000002d0: 816b f73b fcc8 b03d 3c6b f13d 8070 f1bd
000002e0: 4ad1 1d3e ecdd d0bd 1b61 56be 3f92 e83d
000002f0: e178 923d 961f 5dbd 8717 19bd b79b 05bd
00000300: 530b 38be bd1f 063e f843 f2bc de5f a2bd
00000310: 0701 1f3e b5b5 3ebe 8c82 3ebe c757 a33d
00000320: e3cf c8bd ad4b 03be f18a 7f3e 16a2 99bd
00000330: 072c 97be 482c 663e 3150 97bd 8217 923d
00000340: 4a93 de3d b6ee 0dbe 2ce1 a6bd 091b a53d
00000350: a546 c63d a02c 8abd ae09 0e3e fad7 cd3c
00000360: 9831 bf3d a9d2 4abd c978 13be 63a1 c63d
00000370: d646 f13d 376a 373d 7e35 2fbe b231 363e
00000380: 2f0f 0cbe 6d89 95bd 74ca 083e 24cc 68be
00000390: 2196 8cbe 0cd6 053e 5086 d43c e78f d4bd
000003a0: 7a0e aa3d 340f a9bb a18b 93bc 1f68 c43d
000003b0: 8d2d 053e c88c 4fbe 79b8 273e b795 133d
000003c0: e3bf e7bd a929 0e3e 1980 b7bd 5458 0b3e
000003d0: e411 313e 7485 cabd cba4 7cbd 2b96 9bbd
000003e0: 50b2 7a3d c885 c13d 7d62 833d eb40 8a3d
000003f0: 886c 303d dacf 403e a4ce 033d c50c f23d
-0.15443757 -0.15794215 -0.06844832 0.057160743 -0.12554175 -0.107572414 -0.021629333 -0.16867894
0.05114732 -0.15433553 0.10741322 0.033655286 -0.16703103 -0.05040642 -0.10322196 -0.0522155
-0.13407865 -0.07704096 0.12555179 0.028433666 0.02576445 -0.06544932 -0.1578421 -0.061144255
0.052985944 -0.17297375 0.043749437 -0.021736398 -0.1604657 0.055080064 -0.08401659 -0.11392962
-0.14279225 0.013604826 -0.07307672 0.05900358 -0.027619043 -0.03277056 -0.114869066 -0.10712266
-0.09074006 -0.02854936 -0.033359613 -0.078522325 -0.08369319 0.096315004 0.050701104 -0.077704616
-0.055182397 0.14091253 -0.106554225 0.07305952 -0.13520119 -0.03935386 -0.0227974 -0.08347666
0.007598097 0.06183377 -0.20100103 -0.10706358 0.022679944 0.06509093 -0.059352446 -0.07208001
0.027362756 -0.049134806 0.009180213 0.03687056 -0.104101315 -0.12822834 0.19817393 0.12798002
0.04721906 0.08559474 -0.14813983 0.0052347183 0.21865478 0.056445163 -0.1893492 0.12724483
0.09397462 0.10234575 0.14551495 -0.2238329 -0.08440719 0.17273895 0.04991526 -0.06556451
-0.041293282 -0.1217426 0.114992686 -0.08096929 -0.051013533 0.16455942 -0.023988264 0.026240902
0.096645646 0.14909174 0.095866114 0.006793231 0.014834168 0.19472912 0.16475052 0.12930639
-0.0044548004 0.058939565 -0.08450179 0.2303285 0.0995893 0.12448898 0.12365762 -0.093671575
-0.17186777 0.30094793 0.15589866 -0.10209016 0.056604218 -0.058076717 -0.054726176 0.06995448
0.17977983 0.14242178 0.16142955 -0.087669075 -0.116916195 0.05454221 -0.07707927 0.01767413
0.045152407 0.08490442 -0.180931 0.2700356 0.11401628 -0.10550251 -0.040229462 -0.14352371
-0.06957899 0.19769318 -0.04381233 0.10896412 -0.0073398654 0.07716738 0.08382723 0.18096255
0.3082824 -0.060932495 -0.07270966 -0.025131917 -0.070954025 0.08023689 0.07701998 -0.01332064
0.001949367 0.15759411 0.083036356 -0.039904986 0.1827451 -0.13353121 -0.058957726 0.18204534
0.094801575 0.15069899 -0.043089334 -0.043850727 -0.08393344 -0.031270776 -0.19377276 0.17436382
0.082898945 0.10407503 0.21975002 0.21093352 -0.13811746 0.069434986 0.26208827 -0.19121066
0.11425426 0.21208435 -0.20054466 0.26879826 0.0075506573 0.08632085 0.117880315 -0.11789036
0.15411869 -0.10198578 -0.2093548 0.11356019 0.07151962 -0.0539852 -0.037375953 -0.032619204
-0.1797307 0.13098045 -0.029573426 -0.079284415 0.15527736 -0.18624003 -0.18604487 0.079757266
-0.09805276 -0.12821837 0.24955346 -0.075016186 -0.29525778 0.2247783 -0.07388342 0.0713339
0.10867937 -0.13860592 -0.08148417 0.08061797 0.09681443 -0.06746793 0.1387088 0.0251274
0.09335631 -0.049517307 -0.14401545 0.09698751 0.11781089 0.04477903 -0.1711025 0.17792395
-0.13677667 -0.073016025 0.1335848 -0.22734123 -0.2745829 0.13069934 0.025942951 -0.1037901
0.083035424 -0.005159283 -0.018010916 0.09590172 0.13005657 -0.20268548 0.16378964 0.03603145
-0.11315896 0.1388308 -0.089599796 0.13607913 0.17291981 -0.098887354 -0.061680596 -0.07597002
0.06120521 0.09449345 0.064152695 0.06750663 0.043072253 0.18829289 0.03217949 0.11818842

fc1.bias f4 [64]
00000000: 646a a9bd ee0b a73d 0add a5bd 03a2 b33c
00000010: d01f 863d 9d8d 543e ba11 d83c f106 1d3d
00000020: 19ab 18bd 6470 54bd d5a5 523e c5f1 58be
00000030: 01d2 9c3d 2c56 823d 44bb 213e a6a6 173d
00000040: eeb1 3e3e 704b c0bd b716 f73c 7077 1bbd
00000050: 30fb 96bc 6eff 6cbd 0196 493e de7b 373e
00000060: c2ea 613e de5e 553c 20bb 363e c7e2 1b3e
00000070: b4dc 08be f870 bf3d e218 173e fa47 313e
00000080: 508a 8dbd 9ed3 553e 7560 113e a0e3 e63c
00000090: 0bf6 33bc 791f 58bd db4a 7ebc b4c4 b63d
000000a0: 011a 063e 2e98 bbbd 1e81 1c3e 4a39 293e
000000b0: 0a40 db3d 1113 dc3d b079 0ebd 6811 813d
000000c0: 3822 6bbb 57d4 98bc 392a dabd cde6 0dbe
000000d0: 8e87 e33d e850 683d 6648 f53c a0ee 8c3c
000000e0: b90b 893d 9717 b53d 8c5f 9c3c 1ec3 26bd
000000f0: 54ac b23d 9ffa 92bc 97f1 ccbd 3374 41be
-0.082722455 0.08156572 -0.080988005 0.02192784 0.065490365 0.20757146 0.02637564 0.038336698
-0.037272546 -0.051864997 0.20571072 -0.21185978 0.076572426 0.06364092 0.15794092 0.037024163
0.18622562 -0.093893886 0.030162198 -0.0379557 -0.018430322 -0.057860784 0.19686128 0.17918345
0.22062209 0.013023106 0.1784482 0.15223227 -0.13365442 0.09347719 0.14755586 0.17312613
-0.06911147 0.20881507 0.14196952 0.028184712 -0.010983954 -0.05276439 -0.015520777 0.08924237
0.13095857 -0.09159885 0.1528363 0.1652576 0.10705574 0.10745824 -0.03478402 0.06302148
-0.003587855 -0.018655939 -0.106525846 -0.13857575 0.111098394 0.056717783 0.029941749 0.017203629
0.06691689 0.0884239 0.019088529 -0.040713422 0.08724275 -0.017941771 -0.10007017 -0.18891983

rnn.weight_ih_l0 f4 [192, 64]
00000000: 77e6 923c 59d1 253c 8ed0 013d 29aa 95bc
00000010: 30a9 653d ee32 033d 0594 95bd 7401 31be
00000020: ebf8 dabc c921 6d3d 5c0d 14be 35a3 b4bc
00000030: e807 23bd f541 833d da96 17be 31b0 263d
00000040: a8c3 11be f16a 86bd b99d f6bd 0c51 34bd
00000050: cc08 79bd 1c92 6ebc df0d 31bd 0c23 b4bd
00000060: 8fcf 01bc e7a6 24be eac8 0f3e 935f 5f3d
00000070: 49c4 cfbd c937 c6bd 97f4 1cbe 6762 9abd
00000080: 80d8 5cbd 850c 5f3d c22f 62be 2f07 2c3e
00000090: 9b52 14be 86eb 14be bf1d 843e e683 aabb
000000a0: 634a b43d 000d 9f3d 99a6 4bbe 82a2 bd3d
000000b0: fe7e ddbd c7df 47be 6297 0a3d 4881 96bd
000000c0: 5378 cd3d 591a 02be eec8 4d3e a492 2dbd
000000d0: 0697 c93d fc81 dc3d cc7c bcbd f569 efbd
000000e0: 181a 75be 8c77 c8bd e35c 14be 62e5 543e
000000f0: 255e 19bb c27f 43be 2ca6 183d 5216 6e3c
00000100: e0a1 c23d f0da 9f3d 1a3f 81bd 8828 393e
00000110: 1776 76bc b968 073e 1408 d9bb e331 aebd
00000120: e5d2 f4bd a294 bcbb ab31 37be 4033 cd3d
00000130: 4298 0e3b d76d b03c 84a9 4cbd 9900 46bd
00000140: 7e62 3abe 95f8 00be 6635 dabd 627d bcbd
00000150: 8c85 24bc 0a47 8ebd e3d4 7bb9 e924 0f3c
00000160: b65a e0bc 7b93 73bd 7690 f73d 9e8c 643e
00000170: fd87 2abd 48bd 94bc ad9f 9ebd 0b82 92bd
00000180: 7067 2fbe eaa7 55bd 7289 57bd 3fa3 d43d
00000190: 34b0 9e3c d022 cebd b25b 9b3d 4fa6 06be
000001a0: 13c8 e63d 5f8f 3f3d bcfc e6bd 1cfd 833d
000001b0: 838d d6bd de91 53be 2df4 b63a 4274 1c3c
000001c0: a35f d13d 8cdf 093e 62bd 4c3e 4a6d 32bd
000001d0: fe01 ecbc 8427 d43d af8c f4bc bd0d 20be
000001e0: 2594 d6bd d1fb 2e3d 7aac 26be 736a 973d
000001f0: 1fe0 a53c bdeb 80bd 0e38 163c 18c9 633d
00000200: 5fc7 3f3d ca77 c4bd cd9b 0bbe 83be 253e
00000210: 6c59 033e 8e55 053d 8d75 4fbe c775 0ebe
00000220: caae 35be 3cb8 ca3d b8a3 e5bd c0b8 b43d
00000230: 8999 80ba 216e c7bc 9f3d bdbd 5725 f03d
00000240: 4314 95bc fec0 44be aa4e 38be b8b8 ad3c
00000250: 78d8 e9bd 5f63 09be 9553 06be 9b79 25bb
00000260: 7702 4bbd cf86 1abe f5f7 453d ef97 213d
00000270: 500c f3bc 7509 1fbe 93e7 0dbe 993d 083d
00000280: f521 b9bd b438 033e f67b d5bd 05b6 263e
00000290: 1b9a 96bd 98d4 00bc 065f 873d c42c c1bc
000002a0: 5c4c d43c 8fea a53d 4a3e 943b 4488 033d
000002b0: 2eec 15bd 7cc1 4ebc 39ee 743d 04fe 0a3d
000002c0: fd7e 0b3e 329d 30bd 028a 643e ddf2 1bbe
000002d0: 67a2 d33c 4102 43bc 2f32 1c3d a2fa 11bd
000002e0: b52f 1cbe e1ea a43d fa98 a2bd b28e 3c3e
000002f0: 6f95 85bd 5bd8 dabd 10e1 463e d797 30bd
00000300: 9394 813a 5a81 0abd a2be 903d baac 22be
00000310: 0ba4 78bd 2338 06be c4e4 69bd bdfe 14be
00000320: 49fc 9a3d 8edd 813d 091e 9abd 6cd7 aabd
00000330: b1ad d8bd f37e 05be 3b70 abbc ea93 bfbd
00000340: b0ea 27bb b197 453d eeca 6b3d 9898 67be
00000350: 3bab 12bd 037c e53d 8af9 a4bd 9401 bd3d
00000360: 0f7f 01be 1f24 4f3d 72c4 56ba 0423 f8bc
00000370: 7f34 08be 6f4b f23d 3ba7 113e e5be e43c
00000380: 4477 43bc ec0e 3dbd 8a94 aabd eb5c 2d3b
00000390: 1c66 7bbe 6502 1c3d 04f5 62be d7ce adbd
000003a0: ef47 47bd 0dd9 58be c674 08bd 7e50 2bbe
000003b0: 4ff5 26be 6a2c bcbd 0dcc 82be a712 9a3d
000003c0: de58 bfbd 964c 653d 73db 82bd 7953 51bd
000003d0: f6bb 8cbc 559e f9bd 0446 a13c d46f e4ba
000003e0: d4fd 1cbd b4f9 0bbe f79e cf3d 6025 3ebe
000003f0: 3f4d 90bd 39b0 36bc 5d77 4cbe 5cfa 23bb
0.01793216 0.010120713 0.031693034 -0.018269615 0.056069553 0.032030992 -0.07303623 -0.1728571
-0.026730021 0.05789355 -0.14458221 -0.02205048 -0.03980246 0.06409065 -0.14803639 0.040695373
-0.14234793 -0.06563366 -0.12041802 -0.044022605 -0.060799405 -0.014561202 -0.04322612 -0.08795747
-0.007923021 -0.16079293 0.14041486 0.054534506 -0.1014486 -0.09678609 -0.15327679 -0.075383
-0.053917408 0.0544553 -0.2208853 0.16799615 -0.14484636 -0.1454297 0.25803944 -0.005203712
0.08803251 0.077661514 -0.1988777 0.092595115 -0.108152375 -0.19518958 0.033835776 -0.07348877
0.10032716 -0.12705363 0.2009618 -0.042376176 0.098432586 0.1076698 -0.092034906 -0.116901316
-0.23935735 -0.09788427 -0.14488558 0.20790628 -0.0023402062 -0.19091704 0.03726785 0.014531689
0.095035315 0.07805431 -0.06310864 0.18081868 -0.015042803 0.13223542 -0.0066232774 -0.08505609
-0.119542874 -0.005755023 -0.1789004 0.10019541 0.0021758233 0.02153675 -0.04996635 -0.048340414
-0.18201634 -0.12594827 -0.10654716 -0.092036024 -0.010041606 -0.069471434 -0.00024016532 0.008736827
-0.027387004 -0.05946682 0.120881006 0.22319266 -0.041633595 -0.018156663 -0.077452995 -0.0715371
-0.17129302 -0.05216209 -0.052621312 0.10382699 0.01937113 -0.10065234 0.07585849 -0.13149379
0.1126863 0.04676759 -0.11278674 0.06444761 -0.1047621 -0.20661113 0.0013958268 0.009549202
0.102233194 0.13464183 0.19994119 -0.043561257 -0.028809544 0.103590995 -0.02985224 -0.1563024
-0.10477475 0.04272062 -0.16276732 0.073933505 0.02024847 -0.062949635 0.009168638 0.0556117
0.046820994 -0.095931605 -0.13633652 0.16185956 0.1282708 0.032552294 -0.20259686 -0.13912116
-0.17742458 0.09898421 -0.112128675 0.08824301 -0.0009811382 -0.024344506 -0.09240269 0.11725872
-0.018198138 -0.19214246 -0.17998758 0.021206245 -0.11418241 -0.13416813 -0.13117822 -0.0025249484
-0.049562898 -0.15090488 0.048332173 0.039451536 -0.029668957 -0.15530951 -0.1385787 0.03326187
-0.0903968 0.128146 -0.10424034 0.16280372 -0.07353612 -0.007863186 0.06609921 -0.023580916
0.025915317 0.08101379 0.004524027 0.032112375 -0.03660219 -0.012619372 0.0597975 0.033933654
0.13622661 -0.043118663 0.22318271 -0.15229364 0.025834275 -0.011902393 0.038133796 -0.035639413
-0.15252574 0.08052612 -0.07939334 0.18413809 -0.06522643 -0.10685798 0.19421792 -0.043113556
0.0009886198 -0.033814766 0.0706761 -0.15886202 -0.06070332 -0.13107352 -0.057102934 -0.145503
0.07567651 0.06341086 -0.0752526 -0.0834187 -0.10580004 -0.13036709 -0.02092754 -0.09354384
-0.0025622062 0.048240367 0.057566576 -0.22616804 -0.03580783 0.11205294 -0.08055408 0.09228817
-0.12646125 0.050571557 -0.0008192725 -0.030290134 -0.13301276 0.11830794 0.1422395 0.027923057
-0.011930291 -0.04615681 -0.08329113 0.0026453089 -0.2455067 0.03808822 -0.22163779 -0.08486717
-0.048652586 -0.21176548 -0.03331449 -0.16729924 -0.16304515 -0.09188159 -0.25546303 0.07523089
-0.09343122 0.05598124 -0.06389513 -0.051104996 -0.01717947 -0.121884026 0.019686706 -0.0017428347
-0.038328007 -0.13669473 0.10137742 -0.18568945 -0.070459835 -0.011150413 -0.19967408 -0.0025021052

rnn.weight_hh_l0 f4 [192, 64]
00000000: 89cd a3bd c7d5 39bd e252 9b3d e155 763d
00000010: 8f05 853d 3f46 ab3d 9f41 983d b3db c2bd
00000020: 437b 0fbe cee8 7fbd 76c0 983d ea32 b9bd
00000030: 300a 40bd 9209 24bd 864b 713d 4368 9f3d
00000040: 68dc 753d 216c b13d ab34 08be 50dc 113c
00000050: afe0 0cbe 7dff b93d b058 19bd 370c 6ebd
00000060: f066 77bc 29cf c3bc d7d5 6dbd 037e 533d
00000070: 585c b7bb 53c5 073d 9c10 dc3d 6ab3 59bd
00000080: 915d c8bd 8fb5 14bd eec8 ac3d c682 ef3d
00000090: ba67 783c 973a 073e 940e a33d e3bf c33d
000000a0: e9bc 62bc 1de0 b53d 1bc8 45bd 5fe4 193d
000000b0: 33bb 32bd 2fea 8f3a 2bcc e03d a1ee 523d
000000c0: 0111 13be b3e0 513d 9fd7 063d 079b e6bd
000000d0: 0220 dabd 4094 90bd c8fd aa3d 5bd2 a8bd
000000e0: 81ff bdbc 8803 1bbe c859 53bb 82d3 54bd
000000f0: a52d 90bd 0be7 113d f3ad 32bd 0ebd 3d3d
00000100: f3f0 90bc 65c0 a8bd b2fd 2dbe 6be8 b63d
00000110: f81b 09bd bf80 e0bc 13d7 7dbd 27fa adbd
00000120: 5d33 0c3e bd49 99bd 6a9b 323d e0c0 b0bb
00000130: 91d6 4ebd fcd2 30bd 6dbc d93d 5d01 46bc
00000140: 2491 153e 2c90 0abd 94d6 8b3b c552 babd
00000150: fb8c 8fbd 3207 6f3d f33e 0f3e 89b3 b83d
00000160: a63d dc3c 9a12 243d 8a4e 75bd d07a 76bd
00000170: 6c0e 943a ad91 d43c 22cb b83d d9a5 443c
00000180: 56b5 be3d c57d be3d a52e 53bc ca3e 693d
00000190: 01f6 1d3e 2941 edbb 4756 a33d 37a7 c43d
000001a0: f2e0 ed3d b14d b8bd ba0f 9a3c ad2b 17be
000001b0: bad0 273d 0356 9d3d b565 8ebd 114f cf3d
000001c0: 0949 4c3d 8b70 0cbe f6cd 02bd 0a23 013e
000001d0: 55b3 1f3e 6895 873d a923 033d 05f1 793d
000001e0: 174f c6bc 8fcd 4fbc 174a 233e f15e 103c
000001f0: eb87 c63d 7636 f73d 5867 833d de5e d03c
00000200: 88d9 dc3a d721 233d 2eab 92bd 0e9a 4c3d
00000210: 6a13 c9bd f158 133e 1095 80bd 9a1f aabc
00000220: 6b2a 743b f7e3 1bbd 34e4 ac3c 5e73 1b3e
00000230: 68c6 9fbd ed59 e8bd 669f 42bd 894e f4bd
00000240: af3b 8bbd e540 f6b9 1444 e8bd ca84 d43d
00000250: f28e 04bd f7ac 4a3d 531d c6bb bb02 b0bc
00000260: 64a3 863d 0fc2 04be bb44 b5bc 0327 023e
00000270: eaff 4a3c 5b0c aabd 38dc 053e b1d8 403d
00000280: 2bd5 b33d 312a c1bd b718 c53d 847e 5dbd
00000290: 39fc f83d e20c 32bd c300 0c3e 20f3 8fbd
000002a0: 9b31 933d e6b5 eabc d79b c8bd 4b20 89bd
000002b0: 5f77 c03d fc4c 18bd 1edc a53c 13ac 653d
000002c0: a255 9c3c 5866 c2bd 077b 29bd 5b39 0c3e
000002d0: 63ad 083a 1ff2 14be a295 ac3d 70ca d5bd
000002e0: 6e11 0bbe f029 abbd e7df 8f3d 083e 33bb
000002f0: 615c 223d 8c46 c43d 4833 b1bd 4a95 a9bc
00000300: 4c98 893d bc81 98bb d55b c7bd d6f7 213e
00000310: 94be 023d b000 ee3d 7461 7cbd 38d6 28bd
00000320: 9f17 003e 2520 37bd 3bdb 37bc 97ce 053e
00000330: c9b3 e73d 87ce 983c dfe0 a33c 2b73 a9bc
00000340: 5afb 093e c1af c3bd d053 94bd ff84 2f3e
00000350: c897 1cbe ae2d 7e3d 329b 23bd 08ea 0c3d
00000360: 53ff 2e3c 0296 3bbd a03f 70bd 0b66 1d3e
00000370: f8f8 2dbb 157c 40bd db30 223e e8a5 0d3e
00000380: 7fb4 2d3e 5312 b3bc f330 863d 561d 343d
00000390: 7a17 c43d a1fb da3d 57f5 b23d 096d 373d
000003a0: b6cb b33c 09da 48be 0ca5 d5bd 4e14 32be
000003b0: bf5f 9a3d c1e5 f23d c616 e23d 6b76 d33d
000003c0: e972 ce3c 694c 9f3c b02e b4bc 61e5 d03d
000003d0: e4c4 b63c f8b8 023d f84f 373e 4c7e 3fbd
000003e0: b815 eb3c 7e55 ed3b d820 1ebd 5ffc 653c
000003f0: 3a16 283d 9860 1a3e 318b c2bc 44c9 a63d
-0.07998187 -0.04536989 0.07584168 0.060140494 0.06495201 0.08363008 0.07434391 -0.095145606
-0.14011864 -0.06247788 0.07458584 -0.09042914 -0.046884716 -0.04004819 0.058909915 0.07783558
0.06002465 0.08663202 -0.13301341 0.008902624 -0.13757585 0.09081934 -0.037438095 -0.058117118
-0.015100226 -0.023902493 -0.05806526 0.051633846 -0.005595725 0.033147167 0.107453555 -0.05314962
-0.097834714 -0.03630596 0.08436762 0.11694865 0.015161449 0.13205944 0.07961765 0.09558084
-0.013838985 0.08880637 -0.04828654 0.037571307 -0.04363556 0.0010979826 0.10976442 0.051497106
-0.14361955 0.05123968 0.032920476 -0.11260038 -0.10650636 -0.070595264 0.08349186 -0.08243247
-0.023193123 -0.15138066 -0.0032249559 -0.051959522 -0.07039956 0.03562073 -0.043622922 0.046322875
-0.017693019 -0.08239821 -0.16991308 0.08931049 -0.03347394 -0.02740514 -0.06197269 -0.084949784
0.13691469 -0.074847676 0.043605246 -0.0053940862 -0.050497595 -0.04316996 0.106316425 -0.012085286
0.14606148 -0.0338289 0.004267523 -0.09097818 -0.07009312 0.05835647 0.13988857 0.090186186
0.026884865 0.040056802 -0.059889354 -0.060175717 0.0011295802 0.02594837 0.090231195 0.012002432
0.09311931 0.093013324 -0.012889539 0.056944646 0.15425874 -0.0072404337 0.079754405 0.09602206
0.116151705 -0.089991935 0.018806327 -0.14762755 0.04097054 0.07682421 -0.06952993 0.101225026
0.04987434 -0.13714807 -0.0319347 0.12611023 0.15595753 0.06620294 0.03201643 0.06102087
-0.024207635 -0.012683286 0.15946232 0.008811698 0.09693893 0.120709345 0.06416196 0.025435861
0.0016849497 0.039827194 -0.07161556 0.049951605 -0.09818156 0.14389397 -0.062784314 -0.020767022
0.0037256728 -0.0380592 0.02110491 0.15180728 -0.07801515 -0.11345277 -0.047515295 -0.11929042
-0.06798493 -0.00046969127 -0.1134111 0.1037689 -0.032362886 0.04948136 -0.006045976 -0.021485677
0.06574133 -0.12964652 -0.0221275 0.12710194 0.012390116 -0.08303138 0.13072288 0.047081653
0.08780893 -0.094318755 0.096238546 -0.054075733 0.12157483 -0.043469317 0.13672166 -0.07028794
0.07187196 -0.028651189 -0.09795349 -0.066956125 0.09397768 -0.037182793 0.020246562 0.056072306
0.019083802 -0.09492177 -0.041377094 0.13693754 0.0005213825 -0.14545487 0.08426978 -0.104390025
-0.13580868 -0.08357608 0.07025128 -0.0027350206 0.03963888 0.09583768 -0.08652359 -0.02070107
0.067185014 -0.0046541374 -0.097343124 0.15817198 0.03192003 0.11621225 -0.061616376 -0.04121992
0.1250901 -0.04470839 -0.011221702 0.13067089 0.11313588 0.018653167 0.020004688 -0.0206848
0.1347479 -0.09555007 -0.072425485 0.17140578 -0.15292275 0.062055282 -0.039942928 0.034402877
0.010680991 -0.045797355 -0.058654428 0.15370958 -0.0026546102 -0.046993334 0.1583895 0.1383282
0.16963385 -0.021859324 0.06552305 0.04397329 0.0957479 0.10692526 0.08738201 0.04478172
0.021947723 -0.19614424 -0.10431871 -0.17390558 0.07537793 0.11860228 0.110395 0.10325321
0.025201278 0.019445615 -0.021994919 0.102000006 0.022310682 0.03191468 0.179016 -0.046751305
0.02869688 0.0072428575 -0.03860554 0.014037221 0.041036822 0.1507591 -0.023748012 0.08143857

rnn.bias_ih_l0 f4 [192]
00000000: 01f3 bfbd c84a 2dbd af18 12be 2b19 683d
00000010: be43 43bb 9acc dbbd d52c 3b3d d073 c83d
00000020: 1abf 333d 3ad3 08be dcb6 7e3d daf4 803d
00000030: cd7d a6bd b391 5b3a 5018 87bd edf5 fbbd
00000040: 3060 cf3d 5954 aabd 1e5c 6cbd 8094 dcbd
00000050: f511 f8bd 6a7e b7bd 7d6b f0bb 5e9e 36be
00000060: 73a1 9fbd 635a 40bd 94b1 0a3d c82c 9e3d
00000070: 2aa1 cabd 2c6d 0ebd d84b 703d 22f7 5d3d
00000080: cc14 363d 1e54 753d bacb 8b3d 82b6 073e
00000090: 123c a6bd 5851 d0bc 14c9 96bd c332 113c
000000a0: 9dcf ef3d 4cd2 bbbd c012 d83c 599d be3d
000000b0: b63e 4abe 9d6d 2abe 9a0f dcbc 02ad 793d
000000c0: 3403 b03c 3673 10be e8c4 3abe b75b f13c
000000d0: 99a1 c03d a253 bf3c 1191 89bd 0631 5dbd
000000e0: a77c 7c3c 9553 02be 89c1 82bd b1e7 2f3d
000000f0: 52d3 0dbe 814e e2bd 29fa 4cbe 409d b03c
00000100: bb87 47be 3118 80be e99a 66be 80be 77bc
00000110: a74a 42bd d8dd 61bd 3b16 febd 81c2 ffbd
00000120: e095 d7bd 5a11 85be 9583 43be c694 aebd
00000130: c35b 69bd b23c 92be 76a9 01be 4ce4 49bd
00000140: f8e8 ccbd c1e3 fbbc 3666 5cbe 8d8c 25bd
00000150: 6c84 1fbe f72e 4fbd 1ffa 58be 0634 16be
00000160: 183b 233e 55e3 b3bd a561 f1bd 35ee c6bd
00000170: 8574 31be 2050 80be 6d92 81bd 080a 91bd
00000180: 487d 95be e593 a6bd c62b 2ebe 9d80 18be
00000190: ebc7 6ebe 3452 98be 57c7 c5bd 1628 01be
000001a0: 1c53 c93d 1a44 41be 04cc 05be 2b53 d73d
000001b0: 8be6 f0bd 3a7e 11be 634c ccbd 5ecd 2dbe
000001c0: 3d6d 52bd 04d0 57bd 0338 6cbe 9ff1 78be
000001d0: 9b6c afbc 4ef1 9abd fd8e 2abe 0b58 763d
000001e0: 5970 84bd d4c6 bcbd 5bd0 30be a968 76be
000001f0: af06 5f3d 90ab c6bd 51dd 6cbe feef 27bd
00000200: 2abc 5dbd 2d23 55bd 7ec9 e2bc ed68 88bc
00000210: 6be8 163e d4c9 e1bd baa2 283e a8e7 54bd
00000220: b067 db3d ef7e c43d 16ee 7cbc 288f 0f3d
00000230: a18c b73a 2868 d3bd 5f5f 00bd 6638 2ebc
00000240: 0c11 073c 8be5 453d c778 68bd 46d7 ca3c
00000250: 4fa5 003e 02c3 f5bc 7fba 023d 9e3f 8abd
00000260: 33cb 9bbd 7f3b cb3d b4a7 39bd 32b9 57bd
00000270: 92eb 65bd 4708 c13d 9783 c9bd 6888 46bd
00000280: 8517 5b3c d4b8 0a3d 78cf d53d da8d 01bd
00000290: a266 55bd 1a8b b4bd 3041 c6bd 3fec c23d
000002a0: e839 a63d 94cf 91bc b5aa bf3d 8ba1 6bbd
000002b0: 1246 5d3d 36e5 9abd 3fb1 cc3c 2090 b63d
000002c0: 6650 d93d 951e 7c3d 5a3c 8bbd 87b0 583d
000002d0: cb04 f23c 01d6 adbd 7c55 23be dd87 3e3c
000002e0: ed22 b0bd c624 213d 4fef cbbd 62e9 843c
000002f0: 18fd b53d c8ed e03c a5cd d83d 32f3 5c3d
-0.09372521 -0.042307645 -0.14267229 0.056664627 -0.0029795016 -0.10732384 0.045697052 0.097877145
0.04388342 -0.13361827 0.062186107 0.06296702 -0.08129463 0.0008375898 -0.06596434 -0.12302766
0.10125768 -0.08316869 -0.057705037 -0.107705116 -0.121128 -0.089596584 -0.0073370324 -0.1783385
-0.07794466 -0.0469612 0.033860758 0.07723385 -0.09894021 -0.034772083 0.05866608 0.054190762
0.044453427 0.059894674 0.06825967 0.13253215 -0.08116926 -0.025429413 -0.07362571 0.0088622
0.11709521 -0.0917097 0.026376128 0.093073554 -0.19750485 -0.16643377 -0.026862908 0.06095601
0.021485902 -0.1410645 -0.18239176 0.029462678 0.09405822 0.023355309 -0.06717122 -0.05400183
0.015410579 -0.12727197 -0.0638457 0.042945568 -0.13850144 -0.1105013 -0.20017304 0.021559358
-0.19485371 -0.25018457 -0.22520031 -0.015121102 -0.047434475 -0.055143207 -0.12406584 -0.124882706
-0.10526633 -0.259898 -0.19093163 -0.0852447 -0.056972276 -0.28561932 -0.126623 -0.049289986
-0.10005373 -0.03074825 -0.21523365 -0.040417243 -0.15577859 -0.0505819 -0.21189164 -0.14668283
0.15940511 -0.087835945 -0.11786202 -0.09713403 -0.17329605 -0.2506113 -0.063267566 -0.070819914
-0.29197145 -0.081336774 -0.17008886 -0.14892812 -0.2331845 -0.29750216 -0.09657162 -0.12612948
0.09830305 -0.18873635 -0.13066107 0.1051391 -0.117627226 -0.14208308 -0.09975507 -0.16972873
-0.05137371 -0.052688614 -0.23068242 -0.24310921 -0.021414092 -0.075655565 -0.16656108 0.060142558
-0.06466741 -0.09217611 -0.17266981 -0.24063362 0.054449733 -0.09700692 -0.231313 -0.04100036
-0.054134525 -0.0520355 -0.02768397 -0.016651595 0.14737098 -0.11024824 0.16468325 -0.051978737
0.10713136 0.09594523 -0.0154376235 0.035048634 0.0014003703 -0.103226006 -0.031340953 -0.010633564
0.00824381 0.048314612 -0.056755807 0.024760853 0.1256306 -0.030000214 0.031916138 -0.06750415
-0.076071166 0.09923457 -0.04532595 -0.05266685 -0.05613286 0.09425407 -0.09839552 -0.04846993
0.013372307 0.033867672 0.10439962 -0.03162942 -0.05209983 -0.08815594 -0.09680402 0.095177166
0.081165135 -0.017799176 0.09358732 -0.057527106 0.054021902 -0.0756325 0.024986861 0.089142084
0.10611038 0.061552603 -0.067986205 0.052902725 0.029543301 -0.08488084 -0.15950578 0.011629072
-0.086004116 0.03934171 -0.09957754 0.016224567 0.088861644 0.027457133 0.105860986 0.053942867

rnn.bias_hh_l0 f4 [192]
00000000: 1bc2 1d3d ed56 793d 5ccb b13d 9c93 86bd
00000010: a2cf 05be 0fd8 cc3d f36e ed3c dbf3 d4bd
00000020: ffc8 9bbd 40f3 b5bd f563 1d3d 4141 32bd
00000030: 0f3b cf3c c9a7 bb3a c261 f4bd 2dba 893d
00000040: 4db3 90ba 73db 62bc 70a8 99bd b557 6dbd
00000050: c22c 8a3d 2474 283d b62d be3c 1ff9 c4bd
00000060: 8121 31bc 2e57 3d3d 4b14 c13d 9d93 48bd
00000070: 7384 923d a319 5abe 80bf 9c3d 31b7 173c
00000080: eb02 39bc 8e2a 66bd 6043 0ebe 9b90 603d
00000090: f653 38bd 58d8 99bd 5439 2cbd 040e d03d
000000a0: 68b8 42bd 6a95 003a b888 06be 23ed 6abd
000000b0: d6a2 06be 92d8 183c 4b49 11bc 3645 00be
000000c0: 7a1a 00be 0f9d a1bd c57e cfbd 18f1 8e3d
000000d0: f1dc 7b3d e959 81bd 7d88 aebd 7865 0a3e
000000e0: 9666 1b3e 7d5c 22be 940d 0abe 47da 173d
000000f0: 2a7e be3d 356a 01bc c029 c6bd b96f c5bd
00000100: b20f 7cbe 566e 09be 5b50 1fbe c858 10bd
00000110: 0cde e9bd d462 433d b596 cfbd 3029 92bd
00000120: 8001 bcbc 790d 08be 7e26 1e3c 90fb 27be
00000130: bc73 c23d ea3d a2be 617f 11be 5313 233d
00000140: b58a 9cbd b9e1 f5bd 9ecd c4bd 3d53 23be
00000150: 8fab 29be 3220 46be 5bf0 8dbe 13ad 4bbe
00000160: 6ca2 1a3e 0c63 1abe f6c2 083c b949 39be
00000170: 93d9 fcbd f3ee 37be ee20 d1bd 61d6 febd
00000180: 58f4 8ebd e4b7 43be 4873 82be 33c1 7cbe
00000190: 66d1 79bd d263 b9bd 962f 4dbe d8f5 01be
000001a0: cc7d d73d b7b7 1cbe a6f6 32bd ce11 57bc
000001b0: 72b7 e1bd 7e04 18be 690e 56bd 7bb2 56be
000001c0: 2abb 26be 67a2 6cbe 6f94 62be f58e 6dbe
000001d0: 3925 54bd 0396 283d 30ca 5dbb b3bf 8fbc
000001e0: 971f 88bd 766c 47be 247e c03b 6bc9 c2bd
000001f0: 312f 6fbd 7628 60be d287 83bd 32d9 5ebd
00000200: 2ee5 0d3e 7b65 85bd 9abb ff3d 8628 a0bd
00000210: 3dc8 263d 374e 173d cb96 1b3e 5bca c1bd
00000220: 8437 883c e1a9 1bbe 7799 ff3d f60e c6bd
00000230: b93e 833d 1b41 8f3d d444 8cbd 705f b7bb
00000240: 0200 a2bc 2541 a9bd 4113 8d3c a78f 93bc
00000250: d5c3 1abd adcd e73d 9e4e d83b 243d 95bd
00000260: 5aa8 9cbd 5b78 ac3d 45e6 fcbd f66a 6abd
00000270: 3793 d73c e1e2 203d 6ce9 bbbd 48af 01be
00000280: c5cc 25be de46 e73d 6aa6 edbc c1dc 17be
00000290: 93ed 3dbe b858 62bd 1a94 b0bd b755 bb3d
000002a0: 1eaa a9bc ff94 513d 63f7 e93d 3e31 953d
000002b0: bf88 76bd d093 17bd 3d58 883d 0f6c 0cbe
000002c0: f704 3f3d e0ab 95bd 18f3 1bbe cf0b 353d
000002d0: c447 3dbe 6d27 fa3d 8a7f 8b3d 64db 80bd
000002e0: bcce 82bd 6dd0 0abd a1ad 9dbd fa6e 0ebd
000002f0: 75a6 c63d 649c 7fbd 8413 b93d 54c9 a6bc
0.03851519 0.060873915 0.08681366 -0.06571123 -0.13067487 0.100021474 0.028983569 -0.10398074
-0.07606696 -0.08884287 0.038425405 -0.043519262 0.025296716 0.0014316972 -0.11932708 0.06724963
-0.0011039764 -0.013846266 -0.0750283 -0.057944972 0.06746818 0.041126385 0.023215156 -0.096178286
-0.010811211 0.04622572 0.09427699 -0.0489689 0.07154169 -0.21298842 0.07653713 0.009259985
-0.0112922 -0.056192927 -0.13892889 0.054825407 -0.045001946 -0.075119674 -0.04204686 0.10158923
-0.047539145 0.0004905077 -0.13138092 -0.057355057 -0.13148054 0.009328978 -0.008867572 -0.12526402
-0.125101 -0.07891285 -0.10131601 0.06979579 0.061490003 -0.06315977 -0.08522127 0.1351527
0.15175852 -0.15855594 -0.13481742 0.0370734 0.09301408 -0.007898857 -0.09675932 -0.0964045
-0.24615362 -0.13420996 -0.15557997 -0.03524092 -0.11419305 0.04770167 -0.10136167 -0.07136762
-0.022949934 -0.1328639 0.009652732 -0.16404557 0.09494731 -0.31687862 -0.14208747 0.03981335
-0.07643644 -0.12005944 -0.09609531 -0.15949722 -0.1656935 -0.19348219 -0.2772244 -0.19890241
0.15101022 -0.15076846 0.008347264 -0.18094529 -0.123461865 -0.17962246 -0.10211359 -0.12443233
-0.069801986 -0.19113117 -0.25478578 -0.24683075 -0.060990714 -0.09052242 -0.20037684 -0.12691438
0.10522041 -0.15304457 -0.043692254 -0.013126804 -0.110213175 -0.14845464 -0.052259836 -0.20966522
-0.16282335 -0.23108827 -0.22126935 -0.23199065 -0.05179331 0.041158687 -0.0033842437 -0.017547464
-0.0664665 -0.19474968 0.005874412 -0.09511074 -0.058394615 -0.21890435 -0.0642239 -0.054406352
0.13856956 -0.065134965 0.12486954 -0.07820229 0.040718306 0.036939826 0.15194242 -0.09462424
0.016628034 -0.15201522 0.12480443 -0.09670822 0.06408448 0.0699484 -0.068490654 -0.005596094
-0.019775394 -0.082643785 0.017221095 -0.018012835 -0.037784416 0.113185264 0.006601169 -0.07287052
-0.07649298 0.084213935 -0.12348608 -0.057230912 0.026315315 0.03927887 -0.09175381 -0.1266452
-0.16191395 0.11292814 -0.029010016 -0.14830305 -0.18547659 -0.05526039 -0.08621998 0.09147208
-0.020711001 0.051167484 0.114241384 0.07284783 -0.060189005 -0.0370062 0.06657455 -0.13713096
0.046635594 -0.07308173 -0.15229452 0.044200715 -0.18484408 0.12214551 0.068114355 -0.062918454
-0.06387088 -0.033890177 -0.07699133 -0.034773804 0.09699718 -0.062405005 0.090369254 -0.020359673

fc2.weight f4 [64, 64]
00000000: dca5 d7bd 4d5b a3bd ce9e cbbd 16ac 453d
00000010: e4b9 9f3d 4ce0 a13c 854a 92bd 649d af3d
00000020: c959 703d 4539 50bc c870 c6bc 49a8 a33d
00000030: 60e7 89ba a418 b3bd 7916 2bbd 9a4c a8bd
00000040: 9577 c8bc 4ed1 3cbd b3bd ae3c 0815 c5bd
00000050: 2361 1a3c d1cf b13d e932 203d 5f57 23be
00000060: 00bd bebd aca1 eb3c e0c5 053e 0e31 2a3c
00000070: 1be1 ac3d a25d f0bb e4cc 5a3d 8fb1 0ebc
00000080: c454 8e3d a34f 21bd a2c3 f4bd 03d3 d9bc
00000090: 9d3d 233e 398d d43d b9e8 d2bb b84b ff3d
000000a0: 8658 11be 579b 08be c667 233c dea0 02bd
000000b0: 423b fabc 7595 383e 93af 4c3e 4aca b8bc
000000c0: 2f31 0d3c 7fdb 12bd 33be 5f3e 391c 103d
000000d0: 29fd 963d c976 1f3e c7e9 d03d e88b debd
000000e0: 9065 dbbc 7e84 fbbb e6ba 9b3d 076e 2cbe
000000f0: bc8a 07be a528 65bd 924f 2f3e 3f48 84bd
00000100: 1f04 01be 88f4 afbc 4eb2 bbbc c042 b53d
00000110: 3888 15be 5a97 3c3d 0f88 dfbc 112b b5bd
00000120: a5a6 ac3d 29a7 233e 35d8 9c3d 38ef 093d
00000130: d25d 33bd 452a 32be 74bc 023e a458 babd
00000140: a6db fd3c eacc 81bd 6c5d f6bd bffc bebd
00000150: 5288 a7bd 311a 2fbd f213 37bd 21ce e0bd
00000160: 7710 c0bd e468 bebd 9388 00bc 83b7 87bd
00000170: d59a d83d 81b7 08bc 87d5 2a3d 41d6 1a3e
00000180: f371 2abc b89b b93d acfb ba3c e594 673d
00000190: d0a4 4b3d 945f 0cbd 27d2 553d 9bac a0bd
000001a0: e73b 4b3d 8c66 9bbc 7553 db3d b251 8bbd
000001b0: eb78 87bd f1fa 1ebd 75e9 ce3d 9665 b2bd
000001c0: 1e86 2ebd 5f70 99bd 5a83 2b3d ede4 5b3d
000001d0: 0920 92bd b397 913d c679 a6bd 69ea c83d
000001e0: 3d7b 9e3d 286b 17bd 6a15 3e3d d2c0 9ebd
000001f0: a830 eebd b7a0 f03c 0472 cabd ef55 3f3d
00000200: 671b 333e 1bb3 0abe df3f 3e3e e4ca 1e3e
00000210: de7a 233c 487c 41bd 1dfb fe3d 4e8b b63d
00000220: 8b59 4cbd 229a 47be f73a d3bc 7931 a73d
00000230: 4a64 04be c287 433e 6f61 99bd 201d 33bb
00000240: 8ba8 8ebd b183 b1bd dc83 563d 3be5 78bd
00000250: 2336 04be 4c93 c93b ac25 4ebe c81f 843d
00000260: b2a4 3bbd c4aa 5b3d f2c6 9cbd 4393 5abd
00000270: 2385 2a3c 2cad 643e cf09 393d bbb1 8b3d
00000280: 961f 10be 9724 79bc b879 573e 89da ff3c
00000290: d71a a8bd 861b 7abd c8e5 b7bd 1afa 1bbd
000002a0: 3083 24be c033 8ebd 1b93 443d 13f4 a33d
000002b0: 619f ecbc 0798 37be e512 f6bd 59c7 46be
000002c0: c9d0 b93d 11ce 0f3e 9a9d 96bb 8379 67bd
000002d0: 9760 293d b998 163e 1e64 15be 31ac 05bc
000002e0: d3b4 10be 622f 52be eb11 6fbd e3dd 143d
000002f0: 05ef 903d 5ae3 ab3d 8d20 48be e4d3 753d
00000300: 9656 6a3e 5b61 c1bd e511 1b3e e07c f93e
00000310: 2901 243d dd9a 373d 992b 09be 96a3 2d3e
00000320: 5329 923d 7dfe c2bd 0c02 2fbd cb76 ce3d
00000330: e58f ef3c aebe db3d 2fd2 99b9 c078 163c
00000340: 5840 b4bd 2c10 74be 64ab bebe be3b 4c3d
00000350: b93d eabc ade9 71be 9a91 65bc 6d5b 193d
00000360: 52b2 1cbd 5c32 6bbe f9f9 03be b16f ff3e
00000370: ad51 84be 46ed 883d 44dc a63d a0e1 4c3e
00000380: 194d 0bbb cf81 493e fca6 583e b029 c6bd
00000390: ce5e 173c 4377 3fbd 12d8 0f3c b50f 31bd
000003a0: caf6 06be b2c3 9fbd 7320 05bd dfc6 64bc
000003b0: 411e 763e 61dd 1cbe 4246 89bd be50 f8bc
000003c0: 99b3 b9bd faa6 063e 89a2 08be 8782 82be
000003d0: 0f78 643e 2d9e be3d 38ed 89bb fcfb 2c3e
000003e0: a74e cc3c 70cb 55be 14b9 91bd 8ec2 e03d
000003f0: ab88 483a a624 1f3c 2300 22be 9bbe 8bbe
-0.10529682 -0.079763986 -0.09942399 0.048259817 0.07799128 0.019760273 -0.0714312 0.08574942
0.058679376 -0.012708967 -0.0242237 0.07991082 -0.0010521226 -0.08744934 -0.04176948 -0.082177356
-0.024471084 -0.046098046 0.02133069 -0.09623152 0.009422573 0.08682216 0.03911105 -0.15951298
-0.09313393 0.028763615 0.13063765 0.010387672 0.08441373 -0.0073353807 0.053418055 -0.008709325
0.069497615 -0.039382588 -0.119513765 -0.026589876 0.15941472 0.103784986 -0.006436434 0.12465614
-0.14193925 -0.13340507 0.009973472 -0.031891696 -0.030545834 0.18025763 0.19988851 -0.022557396
0.008617683 -0.03585386 0.21849899 0.035183165 0.07372505 0.15572657 0.102008395 -0.10866529
-0.026781827 -0.0076757064 0.076040074 -0.16838847 -0.13236517 -0.055946965 0.17120197 -0.06459092
-0.12599228 -0.021478906 -0.02291217 0.08850622 -0.14602745 0.046042778 -0.027286557 -0.08846105
0.084302224 0.15981735 0.07658426 0.033675402 -0.043790646 -0.17398937 0.12767202 -0.09098938
0.030988526 -0.063379124 -0.120295376 -0.09325551 -0.08180298 -0.042749587 -0.044696756 -0.10976816
-0.093781404 -0.0929735 -0.007845062 -0.06626799 0.10576407 -0.008344532 0.04170754 0.15120794
-0.010403144 0.09062904 0.022825085 0.05653848 0.049717724 -0.034270838 0.05220237 -0.07845422
0.049617674 -0.018969797 0.107092775 -0.068026915 -0.0661486 -0.038813535 0.10103122 -0.08710782
-0.042608373 -0.07492136 0.041873313 0.053685118 -0.071350165 0.071090125 -0.08128695 0.09810335
0.077383496 -0.036967427 0.04640714 -0.07751621 -0.11630374 0.02937351 -0.09885028 0.046712812
0.17490922 -0.13544886 0.18579052 0.15507084 0.009978024 -0.047237664 0.1245024 0.08913289
-0.049890082 -0.19492391 -0.025784953 0.08163733 -0.12928882 0.19094756 -0.07489287 -0.0027330592
-0.06965741 -0.08667696 0.052371845 -0.060765486 -0.12911277 0.0061515924 -0.20131558 0.06451374
-0.045811363 0.05362965 -0.07655133 -0.053363096 0.010407719 0.22331685 0.04517537 0.06821009
-0.14074549 -0.015206478 0.21042526 0.031232135 -0.08208244 -0.061061405 -0.08979374 -0.038080312
-0.16065669 -0.06943464 0.047991853 0.08005538 -0.028884592 -0.17929088 -0.120153226 -0.19411983
0.09073026 0.14043452 -0.0045964243 -0.056512367 0.04135188 0.14706697 -0.14588973 -0.008158729
-0.14131479 -0.20525888 -0.058366697 0.03634442 0.07076839 0.08392973 -0.19543667 0.060016528
0.22884592 -0.09442397 0.15143545 0.48728085 0.04004017 0.044825424 -0.13395537 0.16956934
0.07136788 -0.09521196 -0.04272656 0.10081252 0.029243419 0.10729729 -0.00029339033 0.0091840625
-0.08801335 -0.23834294 -0.37240136 0.049861662 -0.028593885 -0.23624296 -0.014011765 0.037440706
-0.038255997 -0.2296843 -0.12888326 0.498899 -0.25843564 0.06685881 0.08147481 0.20007944
-0.002125567 0.19678424 0.2115745 -0.0967592 0.009238912 -0.046744596 0.0087795425 -0.04322787
-0.1318008 -0.07800998 -0.03250165 -0.01396343 0.24034978 -0.15318824 -0.06702854 -0.030311938
-0.09067459 0.13149634 -0.13343252 -0.2549021 0.22311424 0.093075134 -0.004209187 0.16893
0.024939848 -0.20878386 -0.07115379 0.10974608 0.00076497596 0.0097133275 -0.15820365 -0.27293858

fc2.bias f4 [64]
00000000: e0d5 83bb 625a f03b 6ff9 ea3d 6135 8b3d
00000010: d183 353c 7242 d03c 19a7 5abd 5cbb babb
00000020: 331a c7bb 7b55 beb9 9187 55bd 54da 133e
00000030: 5f21 d33d a91d 48bd 5e33 18bd 54a5 43bd
00000040: 0e73 213e 0b69 e13d 8d6f 9f3d 4310 ad3d
00000050: 321c 02bd 7534 19bc 54e6 253c b97f 97bd
00000060: 0ca4 8e3d 2054 05be 7fbb b23d 5c85 ca3d
00000070: 9bff 92bd d522 4dbd 6a76 e3ba 0fc7 a83c
00000080: b36b 3c3d 5722 36bd f78d ea3d de95 04be
00000090: 0713 123d b84b 983c 9618 d03d 4f6b bd3d
000000a0: 6732 413d 4b20 d73c eec9 e03c 25d3 d0bd
000000b0: 8567 a4bd 5ba1 413d 6436 7ebd e570 0bbd
000000c0: c42a a0bd 7286 b93d 9c6f c5bb a986 d33d
000000d0: f62e babd 2285 c1bd 69f6 ed3d c253 323d
000000e0: 30ab 03be f215 023e 10b3 803b 700a fa3d
000000f0: 67ee a4bd e689 8f3d c81b 43bc ee4d a93c
-0.0040232986 0.007334993 0.11473357 0.067972906 0.011078791 0.025422309 -0.053382013 -0.0056986045
-0.0060761212 -0.00036303312 -0.05213124 0.14438754 0.103090994 -0.04885641 -0.037158363 -0.04776509
0.15766546 0.110063635 0.077849485 0.08450367 -0.03176517 -0.009350886 0.010125715 -0.07397408
0.06964883 -0.13020372 0.08727168 0.098887175 -0.07177659 -0.050082047 -0.0017354016 0.020602731
0.046001147 -0.044466343 0.11452859 -0.12947795 0.035662677 0.018590793 0.101609394 0.09248983
0.047167208 0.026260516 0.027440038 -0.101965226 -0.08027557 0.04727302 -0.06206359 -0.03404321
-0.07820657 0.090588465 -0.0060252678 0.10328419 -0.09090988 -0.09449221 0.11619265 0.04353691
-0.12858272 0.12703684 0.003927596 0.12209022 -0.08053284 0.07008724 -0.011908479 0.020667043

fc3.weight f4 [2, 64]
00000000: 108c c5bc 536f 8cbd da4f 073e 8768 c1be
00000010: 91a5 843d 86e5 d93b 2c77 3dbe 7a55 7abd
00000020: cdb4 6abe 2ad9 243e c522 0c3e 28b2 b83d
00000030: 7672 7fbd 7d36 b23c 3a05 ebbd 624d 1d3e
00000040: 6415 3e3e 4ad4 f03c 0715 e63d 8db8 943d
00000050: 44ed a0bc b4dd 183e ca03 6e3d 459d fabd
00000060: 02d9 993d 917e a0bc a109 a1bd 6ba6 26be
00000070: 9b37 ea3d 2a47 eabd 0a55 01be d090 a3bd
00000080: 0cc0 9ebd 2e51 373d 9deb a63d 4a3e 8e3d
00000090: 1a09 d6bd 425c 9bbd c220 c93d e759 403e
000000a0: 06a8 dbbd 0405 0d3e 5f6a ff3c 4b06 e7bd
000000b0: ea4f e5bd 0e01 d1bd de85 e53c 0736 9dbd
000000c0: ce97 89bd a178 aebd dd79 bbbc 694f 2cbe
000000d0: 7ffb 34be 3edf c9bd 829f 043e 54a0 4e3d
000000e0: 1d1b debd 9e4b 803d 45d1 b03c 5655 b6bd
000000f0: 522a 093d 517d 44bd de73 f73d bf3b 1e3c
00000100: 7cdb eebd f536 ac3d 3b2f 1ebd 707d c93e
00000110: 2ed0 02be 8c5c e0bd 1f0b ac3d 56ad b93d
00000120: 2784 b03e 52e0 403d bf09 a3bd 2dda 46be
00000130: a948 993d d1ba f1bd b48a d7bd d9f2 4cbd
00000140: 666a 40be 7ce4 f9bd 9e84 dfbd aeb2 2fbe
00000150: 24c1 fabc a591 06bd e390 d23d 735f 653d
00000160: 9963 b5bd f518 e9bc 53a7 3e3d fa37 a63d
00000170: 3af1 e2bd c14e 243e af36 c93c 57cc 96bd
00000180: 179a 943b 90ed 10bb fc95 0bbe 6872 7bbd
00000190: b873 b33d cb93 033d 4e19 f2bd b278 0abe
000001a0: 8038 20bd 474c 3dbd 9005 13be 4f95 9fbd
000001b0: a827 383e f9eb a13c b636 1a3d a036 b53d
000001c0: 09c5 4abd e617 343e 1710 92bc e010 4b3d
000001d0: 44d8 233e c143 ee3a 51b6 2bbe 7bd6 22be
000001e0: 6042 bd3c b746 c1bd 4040 e4bc bde5 f53d
000001f0: 80ba 383e be38 d83d 6806 1cbe 4581 45bd
-0.024114639 -0.06857171 0.13214055 -0.3777506 0.06476892 0.006649676 -0.18502492 -0.061116673
-0.22920533 0.16098467 0.13685139 0.090183556 -0.062365018 0.021754498 -0.11475606 0.1536155
0.18562847 0.029398102 0.112344794 0.07261763 -0.019644387 0.14928323 0.058109082 -0.12237028
0.07512094 -0.019591602 -0.07863165 -0.16274421 0.11436387 -0.11439355 -0.12630096 -0.07986605
-0.07751474 0.044755153 0.081504084 0.069454744 -0.10450955 -0.07585956 0.09820701 0.18784295
-0.10725407 0.13771445 0.031178651 -0.11280497 -0.11196883 -0.10205279 0.028017934 -0.076763205
-0.067184076 -0.08519102 -0.022885257 -0.16827168 -0.17674063 -0.09857033 0.12951472 0.05044587
-0.10845015 0.06264423 0.021584162 -0.08902995 0.033487625 -0.047971074 0.12082647 0.009657799
-0.11662957 0.0840892 -0.03861926 0.39353514 -0.12774727 -0.10955152 0.08400559 0.09066264
0.34475824 0.04708893 -0.07960843 -0.19419165 0.07484562 -0.118032105 -0.105245024 -0.050036285
-0.18790588 -0.12201783 -0.109139666 -0.17158005 -0.030609675 -0.03285374 0.10281541 0.05599923
-0.08856887 -0.028454283 0.04654629 0.081161454 -0.110811666 0.16045667 0.024562208 -0.073631935
0.0045349705 -0.0022114255 -0.13631433 -0.061388403 0.08762306 0.03212337 -0.11821233 -0.13522604
-0.039116383 -0.046215322 -0.1435759 -0.0779215 0.17983878 0.01976584 0.037649833 0.088483095
-0.049504314 0.17587242 -0.017829938 0.04957664 0.16000468 0.0018178151 -0.16768767 -0.1590213
0.02310294 -0.09437316 -0.027862668 0.1200671 0.18039894 0.10557698 -0.15236819 -0.048218984

fc3.bias f4 [2]
00000000: fbb5 de3d aa2a 963c
0.10874554 0.01833089
