model/3node_SL_1.pt (torch, 127559 bytes, 10 tensors)

fc1.weight f4 [64, 30]
0.16704103 -0.17623077 -0.08071348 0.087928206 -0.109903984 0.08681068 -0.017497974 0.15531822
-0.06687176 0.10888473 0.03940091 0.15051246 0.14916031 0.136205 0.12493353 0.030175967
0.14248429 0.1127007 -0.06729144 0.036075074 0.15344776 0.12251813 0.076837786 -0.25163764
-0.17007945 -0.00964013 -0.049277663 0.07596594 0.22258468 -0.07942793 0.22709528 -0.021964213
0.15840623 0.20292127 -0.0062852222 0.11413983 0.024267685 0.15197203 0.13533065 0.20971704
0.088240154 0.033267118 0.1385532 0.18536869 0.089086734 0.19523965 0.16834624 -0.024978844
-0.10732286 -0.10386976 0.1487544 0.13052136 -0.026873859 0.15924789 0.027429987 -0.04886179
-0.0328961 0.15276395 0.08929585 -0.024548693 0.10509417 -0.034178376 0.18177398 0.19354244
0.22743714 -0.019471193 -0.11894791 0.09278032 0.18661883 -0.029535232 0.10128959 -0.16112635
-0.067379326 0.054623768 -0.019374255 0.05852488 0.052802254 0.030574273 -0.2033887 0.11939765
-0.08648522 0.19465141 0.24988848 -0.18286403 -0.16267112 0.0072226287 -0.12721637 -0.04003304
0.107569374 -0.07930834 0.22129096 0.02316082 0.033283103 0.06856152 -0.034287434 0.15304404
0.22989872 -0.116606325 -0.038244657 -0.0055259485 -0.09488991 0.05529356 -0.017540319 -0.039605275
0.0143917715 0.14529964 -0.060113434 0.077125326 0.26565468 0.09823921 -0.027783617 -0.116406836
0.11023028 0.30390915 0.18052152 -0.09004559 0.24563867 -0.006530886 0.04493665 0.3582374
0.16805844 0.12069976 0.085822 0.17545879 0.15783508 -0.14464998 0.0727543 -0.019452743
0.14186911 -0.04757147 0.10166605 0.06989579 -0.1923821 0.16306344 0.03068461 0.023719363
-0.025424113 -0.2667281 -0.17317607 -0.013544765 -0.06853334 -0.11074143 0.313202 -0.08415512
-0.23800856 0.19098715 0.043042026 0.0925801 0.14221567 -0.22587216 0.15932229 -0.033021405
-0.15303051 0.2179034 0.11459801 -0.1293679 0.04250217 -0.108758025 -0.17033713 -0.008803553
-0.018339872 0.13378839 0.026220864 0.1983781 0.1928561 0.1642301 -0.063712806 -0.2009579
-0.07178036 -0.0433143 0.19282684 -0.06276452 0.23011552 -0.2002821 -0.041412145 0.057120565
0.08073611 0.34008363 0.24715921 -0.16623226 0.11554678 -0.062204573 0.20796783 0.03383624
-0.054315895 -0.13255638 -0.16365604 0.06737717 -0.060268685 0.058494367 0.033615846 -0.16882144
-0.030222116 -0.009232089 0.24703237 0.07588788 0.29378384 -0.09983573 -0.19075195 0.10652476
0.026743947 0.13370076 0.1520189 -0.01791456 -0.23793814 0.25611684 -0.10792582 0.21398377
0.06567002 -0.21279079 -0.068988636 0.05581638 0.14554042 0.021752367 0.2498911 0.029676719
-0.14743806 0.20554458 0.06531925 0.20648524 0.16747844 -0.13632433 -0.08155588 0.14569652
0.17121255 -0.00868205 0.056192677 -0.11313294 -0.08037318 0.0031349284 0.00737449 -0.08070918
0.025208728 -0.2936598 -0.19119757 0.17757651 -0.07482873 0.108399086 0.15702471 -0.18130188
-0.16572711 0.17727098 -0.065411866 -0.039761044 -0.089269966 -0.02523207 -0.07003252 -0.14754944
0.10307187 0.015600047 -0.04623459 0.15997197 0.18135822 0.019715609 0.13661793 -0.04352951
00000000: ce0c 2b3e d775 34be 1c4d a5bd b413 b43d
00000010: 5715 e1bd ccc9 b13d e957 8fbc bd0b 1f3e
00000020: 10f4 88bd f5fe de3d d962 213d f01f 1a3e
00000030: 7bbd 183e 5379 0b3e 27dd ff3d 9733 f73c
00000040: 67e7 113e a0cf e63d 18d0 89bd 75c3 133d
00000050: 6921 1d3e c9ea fa3d 215d 9d3d a6d6 80be
00000060: 4f29 2ebe a3f1 1dbc 60d7 49bd 0894 9b3d
00000070: 3ded 633e 1cab a2bd aa8b 683e 4bee b3bc
00000080: 3e35 223e 98ca 4f3e 44f4 cdbb 25c2 e93d
00000090: 06cd c63c 8e9e 1b3e 1e94 0a3e 10c0 563e
000000a0: 41b7 b43d 1a43 083d e4e0 0d3e 4ad1 3d3e
000000b0: 1b73 b63d e7ec 473e f562 2c3e 6fa0 ccbc
000000c0: 16cc dbbd abb9 d4bd 1353 183e 64a7 053e
000000d0: 9126 dcbc e111 233e dab4 e03c 4d23 48bd
000000e0: 10be 06bd 276e 1c3e bee0 b63d 571a c9bc
000000f0: 9d3b d73d a0fe 0bbd f522 3a3e fd2f 463e
00000100: 48e5 683e 0d82 9fbc f69a f3bd 9c03 be3d
00000110: 0219 3f3e dff3 f1bc eb70 cf3d 4efe 24be
00000120: 2cfe 89bd 2cbd 5f3d c2b6 9ebc c9b7 6f3d
00000130: 2d47 583d e676 fa3c 2145 50be c186 f43d
00000140: 2a1f b1bd b352 473e c4e2 7f3e b540 3bbe
00000150: 4293 26be cdab ec3b 0245 02be aff9 23bd
00000160: 554d dc3d 696c a2bd 199a 623e c3bb bd3c
00000170: dd53 083d fb69 8c3d fb70 0cbd 94b7 1c3e
00000180: 926a 6b3e 4ccf eebd 6ea6 1cbd 0413 b5bb
00000190: a455 c2bd 807b 623d b7b0 8fbc 2439 22bd
000001a0: 77cb 6b3c 6ec9 143e 8139 76bd e2f3 9d3d
000001b0: e403 883e a431 c93d 789a e3bc b566 eebd
000001c0: 6ac0 e13d fb99 9b3e a2da 383e d369 b8bd
000001d0: b488 7b3e 0b01 d6bb 7e0f 383d e46a b73e
000001e0: 8317 2c3e 7031 f73d 72c3 af3d 78ab 333e
000001f0: 859f 213e 201f 14be 3500 953d 5c5b 9fbc
00000200: 2346 113e 4dda 42bd 4a36 d03d 8625 8f3d
00000210: d0ff 44be 1afa 263e 4b5e fb3c 1c4f c23c
00000220: 3b46 d0bc 9690 88be 1155 31be ddea 5dbc
00000230: 355b 8cbd 67cc e2bd 035c a03e 8559 acbd
00000240: 84b8 73be 2392 433e d64c 303d a39a bd3d
00000250: fca0 113e 084b 67be 6225 233e 7441 07bd
00000260: 08b4 1cbe 1222 5f3e 5db2 ea3d 0579 04be
00000270: c116 2e3d 87bc debd db6c 2ebe c73c 10bc
00000280: 803d 96bc d3ff 083e 23cd d63c a123 4b3e
00000290: 127c 453e ef2b 283e dc7b 82bd e8c7 4dbe
000002a0: 9501 93bd 566a 31bd 6674 453e af8a 80bd
000002b0: 67a3 6b3e c016 4dbe c89f 29bd 41f7 693d
000002c0: f958 a53d 711f ae3e 4e17 7d3e ca38 2abe
000002d0: caa3 ec3d 39ca 7ebd 85f5 543e df97 0a3d
000002e0: 587a 5ebd dcbc 07be 7395 27be 0bfd 893d
000002f0: 4cdc 76bd ca97 6f3d c5b0 093d 87df 2cbe
00000300: 5f94 f7bc 3042 17bc 0ef6 7c3e 1b6b 9b3d
00000310: d66a 963e ad76 ccbd 7b54 43be a729 da3d
00000320: 1f16 db3c dae8 083e d8aa 1b3e 8ec1 92bc
00000330: 0ea6 73be bf21 833e 3608 ddbd 901e 5b3e
00000340: 017e 863d d4e5 59be ea49 8dbd b79f 643d
00000350: 8c08 153e 0532 b23c 74e3 7f3e 971c f33c
00000360: 01fa 16be 477a 523e 19c6 853d de70 533e
00000370: 787f 2b3e 9b98 0bbe c506 a7bd 7831 153e
00000380: 5852 2f3e 283f 0ebc 4b2a 663d 3eb2 e7bd
00000390: b29a a4bd 5f73 4d3b b5a5 f13b db4a a5bd
000003a0: 8982 ce3c 945a 96be 4cc9 43be 9ed6 353e
000003b0: ce3f 99bd 5700 de3d 16cb 203e 33a7 39be
000003c0: 5eb4 29be 8686 353e a8f6 85bd 7adc 22bd
000003d0: 2cd3 b6bd 7cb3 cebc 366d 8fbd 3317 17be
000003e0: 5817 d33d 5797 7f3c 7b60 3dbd b1cf 233e
000003f0: f8b5 393e a182 a13c 92e5 0b3e 004c 32bd

fc1.bias f4 [64]
0.051412027 0.16764516 -0.028222535 -0.088202745 -0.0036864348 0.018998653 0.08629245 -0.035691097
0.06577551 0.12202656 -0.10381807 0.23288573 0.1460036 0.120118186 0.15158631 0.18664181
-0.0075515253 -0.16952065 0.07222114 0.115750164 -0.033580575 0.19428484 0.0824408 -0.10221988
0.17485714 0.09229626 0.14458707 0.1714454 0.09882405 0.118365265 -0.097538926 0.14958365
-0.00496556 0.1194702 -0.048376247 -0.053820346 0.027499769 -0.16106269 0.21695568 -0.0054699806
0.1300065 0.16725302 -0.039034992 0.042395998 0.101649925 -0.05562727 0.04845536 0.13820407
0.013532207 0.09663745 0.0060935053 0.080634065 0.2377039 0.017622082 0.025277277 0.19790575
0.10634001 0.111634724 0.11298406 -0.05677243 -0.101911224 0.09066939 0.15819952 0.17280658
00000000: 6b95 523d 2cab 2b3e f232 e7bc a4a3 b4bd
00000010: 1d98 71bb 10a3 9b3c 19ba b03d d430 12bd
00000020: 50b5 863d 10e9 f93d 919e d4bd 9979 6e3e
00000030: f881 153e 8600 f63d 7139 1b3e 081f 3f3e
00000040: c972 f7bb d296 2dbe ade8 933d 6c0e ed3d
00000050: c98b 09bd 9bf2 463e b9d6 a83d a858 d1bd
00000060: c00d 333e d205 bd3d a20e 143e 628f 2f3e
00000070: 4364 ca3d 7d69 f23d 7dc2 c7bd 752c 193e
00000080: 23b6 a2bb cbac f43d 2c26 46bd b972 5cbd
00000090: 3247 e13c 9eed 24be a129 5e3e 863d b3bb
000000a0: 6d20 053e 6044 2b3e 28e3 1fbd 6da7 2d3d
000000b0: d62d d03d 6cd9 63bd 2179 463d 5e85 0d3e
000000c0: 31b6 5d3c dbe9 c53d 07ac c73b 7923 a53d
000000d0: a768 733e 2f5c 903c 4b12 cf3c cea7 4a3e
000000e0: cbc8 d93d bfa0 e43d 3064 e73d 358a 68bd
000000f0: d5b6 d0bd e0b0 b93d 0eff 213e 35f4 303e

rnn.weight_ih_l0 f4 [192, 64]
-0.09727467 0.0414962 0.08452194 -0.033018593 -0.0577783 -0.010296226 0.04938188 -0.011502611
0.093251295 0.06586615 -0.001527234 0.051440347 0.02795987 -0.12966675 -0.036302555 0.05366374
0.06651264 0.082383186 0.0028587806 0.06759479 0.09481554 -0.028869554 -0.06836821 0.007931512
0.043563835 0.13063684 -0.0740768 -0.06792057 0.020054873 0.06956445 -0.06276039 -0.09386921
-0.004035013 0.086832434 0.077979036 0.014260661 0.0062311557 -0.009112317 0.11273746 0.09079
0.08071871 -0.031935632 0.06444338 0.011972915 -0.11239561 -0.0598693 -0.084751755 -0.07543412
0.093768746 -0.07004724 -0.045391656 -0.09571056 0.100833446 -0.111432105 -0.07131767 0.102967344
-0.095960744 0.027931899 0.024132343 -0.06634342 0.0037835967 0.04957581 0.058539078 -0.18866706
0.09239544 -0.044635613 0.029669622 -0.102770105 0.13265537 0.11602794 0.13596043 0.14276594
-0.118528254 0.035388004 -0.03359738 -0.0061667403 0.1037485 -0.22930117 -0.0037718585 0.04567755
0.05823924 -0.03097838 -0.12581836 0.010581907 -0.022835806 -0.21938205 -0.13416013 0.06421735
-0.056670792 0.100446776 -0.105710216 -0.27957663 -0.003607719 -0.12498849 -0.27763924 0.084137425
0.17653126 -0.1496941 -0.09098625 -0.25146842 -0.12794352 -0.0036499938 -0.03341434 0.023599764
0.13803153 0.0036542935 -0.0752312 -0.17924987 -0.08630024 0.06467221 0.1977903 -0.094099745
-0.0066299657 0.07165855 -0.12743047 0.17592481 -0.2559138 0.027302373 -0.2402836 -0.17330407
-0.15760097 -0.11785747 -0.2411891 -0.114071235 0.18848872 -0.103725 -0.084027186 0.1000515
0.0036097257 0.11967689 -0.055550482 0.08126573 0.14916931 0.048904717 0.07751195 0.13598078
0.010226146 0.12599342 -0.09607509 -0.01885083 -0.052678548 0.050936505 0.07943339 -0.0042861383
0.11009982 -0.05283084 -0.008358588 -0.014088225 -0.01570086 0.049114954 0.069141366 0.071239494
-0.077966765 0.055419214 0.114322305 0.14481428 0.008432523 0.102205314 -0.0097480295 0.022385923
0.14835277 -0.061552707 0.08823741 0.022409717 0.14838502 0.13387679 -0.07037766 0.08028857
0.11407838 0.10633503 0.10869595 -0.08240159 0.115050234 0.081468076 0.14954266 -0.04637604
-0.003964608 0.07620282 -0.02779536 -0.040259812 0.05346829 -0.02018759 0.1283759 0.017292676
0.1398551 -0.08822552 -0.09344371 -0.026565759 -0.048817486 0.02605776 -0.03578208 -0.074437425
-0.061609052 -0.01840085 0.001094372 -0.047129743 -0.023990959 -0.008769642 0.15573561 0.1643674
-0.055339757 0.0955298 0.059045993 0.025033988 0.1096176 0.0856184 -0.087288275 0.0025331308
-0.109885 0.09504706 -0.076268725 0.12548089 0.11906839 -0.09264009 -0.015621399 -0.05418716
-0.044063978 -0.080077805 0.1557073 -0.0011144278 -0.056269273 0.10423065 -0.07495112 0.06915034
0.10635574 -0.051729575 0.07139327 -0.026400711 -0.0747058 -0.07010724 0.09360528 0.044044588
0.04841954 -0.017297301 0.20014964 0.029918639 -0.07480554 0.044902097 0.08525312 0.01162869
-0.035619404 0.012789443 0.075164214 0.1500525 0.09202686 0.10969984 0.06934558 0.07617926
-0.025125446 -0.09622952 -0.0382017 -0.08331241 0.10538869 -0.00066968397 -0.07951601 -0.016823888
00000000: f137 c7bd ebf7 293d d719 ad3d 813e 07bd
00000010: f0a8 6cbd 80b1 28bc a744 4a3d 7375 3cbc
00000020: 89fa be3d d5e4 863d 782d c8ba 1db3 523d
00000030: 190c e53c 5cc7 04be fdb1 14bd 83ce 5b3d
00000040: c737 883d 84b8 a83d 615a 3b3b 236f 8a3d
00000050: a62e c23d d87f ecbc a204 8cbd 2cf3 013c
00000060: fe6f 323d aac5 053e 94b5 97bd f119 8bbd
00000070: 1e4a a43c ce77 8e3d 8588 80bd 803e c0bd
00000080: 2438 84bb 34d5 b13d 79b3 9f3d 8ca5 693c
00000090: b92e cc3b d44b 15bc e6e2 e63d 1cf0 b93d
000000a0: da4f a53d f0ce 02bd e4fa 833d 0c2a 443c
000000b0: ab2f e6bd 8339 75bd 5492 adbd 347d 9abd
000000c0: d409 c03d ed74 8fbd 9aec 39bd e603 c4bd
000000d0: c481 ce3d 8436 e4bd 000f 92bd 8be0 d23d
000000e0: 1187 c4bd 70d1 e43c 31b1 c53c 0fdf 87bd
000000f0: 38f6 773b 0110 4b3d acc6 6f3d f031 41be
00000100: d239 bd3d d5d3 36bd b50d f33c 2279 d2bd
00000110: cfd6 073e 0ea0 ed3d 3639 0b3e 3c31 123e
00000120: f1be f2bd 03f3 103d 689d 09bd 5e12 cabb
00000130: 187a d43d edcd 6abe 4931 77bb 6218 3b3d
00000140: 458c 6e3d 5fc6 fdbc 87d6 00be bc5f 2d3c
00000150: 2812 bbbc b0a5 60be 4661 09be 6384 833d
00000160: a21f 68bd 0ab7 cd3d 997e d8bd ab24 8fbe
00000170: 7b6f 6cbb f7f9 ffbd bb26 8ebe 3e50 ac3d
00000180: 9cc4 343e 6949 19be 0057 babd 78c0 80be
00000190: a003 03be bc34 6fbb 7add 08bd 4b54 c13c
000001a0: 2358 0d3e df7c 6f3b d112 9abd 478d 37be
000001b0: 2ebe b0bd dd72 843d 8a89 4a3e 5eb7 c0bd
000001c0: 2f40 d9bb b8c1 923d 227d 02be a225 343e
000001d0: 2207 83be 3aa9 df3c e70c 76be 9f76 31be
000001e0: 2662 21be 425f f1bd 47fa 76be 2e9e e9bd
000001f0: 3003 413e c66d d4bd 7216 acbd cde7 cc3d
00000200: 2691 6c3b 2819 f53d e788 63bd a66e a63d
00000210: d7bf 183e 5050 483d 96be 9e3d 8c3e 0b3e
00000220: 918b 273c 6b04 013e 04c3 c4bd 0e6d 9abc
00000230: 76c5 57bd cca2 503d f9ad a23d bc72 8cbb
00000240: 047c e13d 2765 58bd 76f2 08bc 4cd2 66bc
00000250: 179f 80bc c32c 493d fd99 8d3d 03e6 913d
00000260: 0aad 9fbd 42ff 623d d021 ea3d 324a 143e
00000270: 9128 0a3c 0551 d13d 33b6 1fbc af62 b73c
00000280: cae9 173e b11e 7cbd d1b5 b43d 9594 b73c
00000290: 3ef2 173e ff16 093e 2a22 90bd 556e a43d
000002a0: eda1 e93d 2ec6 d93d fb9b de3d 2ac2 a8bd
000002b0: 759f eb3d bcd8 a63d b621 193e cdf4 3dbd
000002c0: 8be9 81bb 3910 9c3d 18b3 e3bc 79e7 24bd
000002d0: 9101 5b3d 7260 a5bc f974 033e 5fa9 8d3c
000002e0: 2d36 0f3e 95af b4bd 6a5f bfbd 6fa0 d9bc
000002f0: d8f4 47bd 1577 d53c 3b90 12bd a672 98bd
00000300: c659 7cbd 61bd 96bc 0871 8f3a 1e0b 41bd
00000310: b088 c4bc 8bae 0fbc 2879 1f3e ed4f 283e
00000320: f1ab 62bd 21a5 c33d 36da 713d 1414 cd3c
00000330: 317f e03d b358 af3d 32c4 b2bd e202 263b
00000340: 630b e1bd 08a8 c23d c732 9cbd 107e 003e
00000350: 21da f33d 16ba bdbd e5f0 7fbc 5bf3 5dbd
00000360: 6e7c 34bd d5ff a3bd bc71 1f3e fe11 92ba
00000370: 9c7a 66bd e176 d53d f97f 99bd b29e 8d3d
00000380: 0ad1 d93d 64e2 53bd a236 923d 4e46 d8bc
00000390: 5bff 98bd 6294 8fbd 20b4 bf3d 1968 343d
000003a0: 9153 463d 12b3 8dbc 07f4 4c3e ef17 f53c
000003b0: a633 99bd 43eb 373d 3099 ae3d 4386 3e3c
000003c0: a7e5 11bd d08a 513c b2ef 993d 5da7 193e
000003d0: 9478 bc3d 4faa e03d 0e05 8e3d df03 9c3d
000003e0: e1d3 cdbc fc13 c5bd 6379 1cbd b29f aabd
000003f0: 07d6 d73d bb8d 2fba 4ad9 a2bd 40d2 89bc

rnn.weight_hh_l0 f4 [192, 64]
0.050488766 0.07618777 -0.015738497 -0.10639977 -0.0082765445 -0.013093633 -0.091103345 -0.10178815
-0.07877392 -0.058075465 -0.07599145 0.0062916246 -0.07601948 -0.015119273 0.11511924 0.019593472
0.04739127 -0.07537545 0.13981085 -0.15283322 0.03860171 -0.073415704 0.10329735 -0.05698789
-0.09481443 -0.022951681 -0.06286375 0.07888559 -0.015418838 -0.032949846 -0.009188989 0.10427358
-0.050963666 -0.04630658 -0.070184305 0.00052491913 0.048776135 0.074715145 -0.12330775 -0.05726323
0.08657696 0.015417764 -0.107262135 -0.08360783 0.09984932 -0.054482874 -0.0040466064 -0.09217095
0.089534126 0.072206795 -0.05117038 -0.0578694 -0.10562919 0.124862164 -0.055331614 0.021449696
-0.12609969 -0.121075705 -0.07196847 -0.010789566 -0.037710622 -0.009865303 0.07694606 -0.11955535
0.02128447 0.0843011 -0.12764387 -0.0775877 0.023788549 -0.053094655 0.019668994 -0.08173308
-0.19663735 -0.116329 -0.04622657 0.068989106 0.07421176 0.022765731 -0.0664905 0.04576068
-0.02474964 0.123823285 -0.07793145 -0.085428126 0.037763424 0.06700575 -0.15302116 -0.07073916
-0.1328617 -0.023255015 0.035738286 -0.0781076 0.017252572 0.07547301 -0.05332333 -0.12683351
0.0927238 -0.12308876 0.010882514 -0.05364271 -0.06877516 -0.11725338 -0.09135531 0.1359743
-0.11865426 0.018586814 0.092362516 0.016228156 -0.052461978 -0.09468893 0.04137556 0.016634975
0.03717775 0.0923075 -0.07691552 0.013970017 -0.12135669 -0.1397826 -0.004403791 0.021580769
-0.013694522 0.08349612 -0.0035476247 0.06890228 0.06269246 0.09094113 0.14484204 -0.011640635
-0.0483629 -0.10434628 -0.05122093 -0.028283013 0.097179815 -0.0651736 0.079399504 0.04872292
0.14287117 -0.089863986 -0.022504928 -0.009296479 -0.10428904 0.06799422 -0.030979028 0.04246602
0.01937492 -0.0049415547 -0.09685135 0.052964896 0.028631916 -0.09679096 0.13010427 0.10853912
0.11220393 4.261142e-05 -0.002159954 0.08963348 -0.122407675 0.1130266 0.073622175 0.13617177
-0.115057096 -0.07031291 -0.12659661 0.031590037 -0.100727715 0.09695129 0.06806138 0.06712341
0.04056713 -0.027544975 -0.06794477 0.120561 0.08591465 0.061842706 -0.10195039 0.054067675
0.021166302 0.10886297 -0.033623103 -0.009708988 0.11444431 0.07350583 -0.0402073 -0.013485458
-0.024450086 -0.10906433 -0.047686107 0.013598461 -0.08025771 -0.13237536 -0.042231344 -0.018500794
-0.0109153595 -0.015767409 0.054237355 -0.07098739 0.012096662 -0.00037761396 -0.14598504 0.083924115
-0.07945377 -0.04872342 0.1369736 -0.051102627 0.01627811 0.17718056 -0.11279073 0.1118613
0.04029246 0.026175585 0.07710912 -0.05114495 0.0077175247 0.020595696 0.122403644 0.15650469
0.013774929 -0.03023523 0.17566518 -0.12655231 0.084402435 -0.09690212 -0.08671996 -0.053753078
0.02441728 -0.014230756 0.044551853 0.027389243 -0.036394585 -0.021233264 -0.092214115 0.10203814
0.05758376 -0.07352101 0.013024355 0.1213749 -0.014779793 0.11535597 0.017414669 0.044194005
-0.057092685 0.023861168 0.011786687 -0.088548124 0.04430829 -0.11134826 0.118948944 -0.092483975
-0.0012346563 -0.08368462 0.082002 0.0760663 0.09234734 0.083370425 0.15144998 0.10678221
00000000: 4fcd 4e3d 5508 9c3d 05ee 80bc 1fe8 d9bd
00000010: 589a 07bc ad86 56bc 6494 babd 4e76 d0bd
00000020: 3954 a1bd 8ae0 6dbd 68a1 9bbd f929 ce3b
00000030: 1ab0 9bbd d4b6 77bc a3c3 eb3d 7d82 a03c
00000040: 591d 423d 725e 9abd 932a 0f3e 5080 1cbe
00000050: d41c 1e3d f95a 96bd 908d d33d 226c 69bd
00000060: 112e c2bd 2a05 bcbc b6be 80bd c58e a13d
00000070: 4b9f 7cbc 6bf6 06bd 6a8d 16bc 638d d53d
00000080: 47bf 50bd f8ab 3dbd cabc 8fbd ba9a 093a
00000090: 7cc9 473d 4104 993d c688 fcbd d98c 6abd
000000a0: 434f b13d ca9a 7c3c 40ac dbbd 953a abbd
000000b0: cd7d cc3d 6f29 5fbd 6599 84bb 1fc4 bcbd
000000c0: ab5d b73d 28e1 933d 0898 51bd 7708 6dbd
000000d0: 1e54 d8bd bcb7 ff3d 67a3 62bd 46b7 af3c
000000e0: 4720 01be 8af6 f7bd 3564 93bd b8c6 30bc
000000f0: 7476 1abd 14a2 21bc e595 9d3d 6fd9 f4bd
00000100: c55c ae3c 0ea6 ac3d 13b5 02be 4de6 9ebd
00000110: 34e0 c23c c879 59bd df20 a13c ac63 a7bd
00000120: 4d5b 49be e63d eebd 1258 3dbd 294a 8d3d
00000130: 56fc 973d 337f ba3c 2c2c 88bd 8d6f 3b3d
00000140: c2bf cabc 1097 fd3d 869a 9fbd f1f4 aebd
00000150: d2ad 1a3d 503a 893d 94b1 1cbe b1df 90bd
00000160: e60c 08be 4d81 bebc 4f62 123d e1f6 9fbd
00000170: 4455 8d3c 9891 9a3d 9069 5abd a5e0 01be
00000180: fae5 bd3d f615 fcbd 924c 323c 75b8 5bbd
00000190: fed9 8cbd 8a22 f0bd 7e18 bbbd d93c 0b3e
000001a0: 0101 f3bd 6043 983c 8f28 bd3d e9f0 843c
000001b0: 5fe2 56bd 45ec c1bd 6b79 293d 1246 883c
000001c0: b247 183d b70b bd3d e285 9dbd 80e2 643c
000001d0: db89 f8bd 2b23 0fbe ad4d 90bb 27ca b03c
000001e0: fd5e 60bc 0400 ab3d 447f 68bb a31c 8d3d
000001f0: e864 803d 583f ba3d 7951 143e 5db8 3ebc
00000200: 2d18 46bd 81b3 d5bd 0acd 51bd c7b1 e7bc
00000210: 3606 c73d bd79 85bd 359c a23d af91 473d
00000220: d24c 123e 9c0a b8bd 415c b8bc 4250 18bc
00000230: 7e95 d5bd 8e40 8b3d bbc7 fdbc d9f0 2d3d
00000240: 27b8 9e3c c4ec a1bb 005a c6bd b8f1 583d
00000250: 7b8d ea3c 573a c6bd 0e3a 053e c249 de3d
00000260: 2dcb e53d aab9 3238 048e 0dbb c291 b73d
00000270: e0b0 fabd 7d7a e73d 39c7 963d 9d70 0b3e
00000280: 0ea3 ebbd 3700 90bd 8ba2 01be 8e64 013d
00000290: 554a cebd 668e c63d c463 8b3d 0078 893d
000002a0: b829 263d 00a6 e1bc a126 8bbd b0e8 f63d
000002b0: 05f4 af3d c74e 7d3d 5ecb d0bd 1176 5d3d
000002c0: f464 ad3c 8cf3 de3d 61b8 09bd 7212 1fbc
000002d0: c761 ea3d 398a 963d 69b0 24bd 1cf2 5cbc
000002e0: 8c4b c8bc 1f5d dfbd 8252 43bd 14cc 5e3c
000002f0: 275e a4bd 688d 07be c6fa 2cbd fa8e 97bc
00000300: 56d6 32bc a72a 81bc fd27 5e3d d661 91bd
00000310: 1431 463c 7dfa c5b9 1a7d 15be 68e0 ab3d
00000320: a8b8 a2bd 3592 47bd cf42 0c3e fd50 51bd
00000330: ac59 853c d26e 353e d4fe e6bd 8a17 e53d
00000340: b509 253d 2e6e d63c 63eb 9d3d 5e7d 51bd
00000350: 4ae3 fc3b 4eb8 a83c c3ae fa3d c442 203e
00000360: 3db0 613c e0af f7bc 93e1 333e ee96 01be
00000370: 2fdb ac3d 9e74 c6bd 3c9a b1bd 302c 5cbd
00000380: bf06 c83c 1e28 69bc 017c 363d 685f e03c
00000390: 7d12 15bd 62f1 adbc c1da bcbd 5ff9 d03d
000003a0: f3dc 6b3d 2f92 96bd 1b64 553c 6793 f83d
000003b0: f226 72bc c03f ec3d 35a9 8e3c c604 353d
000003c0: 05da 69bd 7f78 c33c f31c 413c b858 b5bd
000003d0: 9c7c 353d 8e0a e4bd 819b f33d 3d68 bdbd
000003e0: 31d4 a1ba d862 abbd aaf0 a73d a6c8 9b3d
000003f0: 9a20 bd3d 1dbe aa3d b415 1b3e a2b0 da3d

rnn.bias_ih_l0 f4 [192]
-0.06675657 -0.0029890826 0.03535497 -0.021002619 0.025380552 0.014273971 -0.05518898 -0.03522339
-0.17576697 0.021889355 0.013239409 -0.00023059967 0.05089213 0.057529535 -0.14581902 0.0041287965
0.03841621 0.030870574 -0.010849627 -0.0060992828 0.02028632 -0.03545513 -0.0071355607 -0.07176804
-0.071163915 -0.07253918 -0.035038453 -0.024891524 -0.10849081 -0.14238764 -0.068353906 -0.08919805
-0.14902468 0.010396913 -0.0020185092 -0.05615699 0.12806831 0.008708201 -0.085305616 0.111525096
0.14279844 0.08091812 -0.008212759 0.06530223 0.049369637 -0.06636769 -0.05965382 -0.12063675
0.09019223 -0.071086705 0.047869176 0.022646986 -0.019590272 0.0024265582 -0.015903795 0.1083755
0.11031413 -0.020342655 -0.06348924 -0.057117727 0.034737945 -0.100841455 -0.013635439 -0.14074813
-0.0569025 -0.1164165 -0.12867223 -0.11568113 -0.24515918 -0.18088754 -0.06547422 0.027616506
-0.10636993 -0.15605679 -0.27830976 -0.23892716 -0.17340463 -0.027465072 -0.088544674 -0.11405988
-0.10440309 -0.19703725 -0.0774472 -0.23816387 -0.116156556 -0.20792735 -0.11177618 -0.13702638
-0.22494285 -0.24224727 -0.20398602 -0.04097721 -0.017229427 -0.11645243 -0.14897287 -0.047860805
0.021569181 -0.12519728 -0.15403064 -0.15478104 -0.1395615 -0.22215946 -0.12759827 -0.019365147
-0.055360164 -0.13807784 -0.10680855 -0.09774757 -0.23086186 -0.10837916 -0.08437065 -0.19995359
-0.0984323 -0.0453362 -0.064073846 -0.05823494 -0.2698206 -0.18065852 -0.027569331 -0.22179587
-0.18896131 -0.17942989 -0.22367297 -0.15269421 -0.2362667 -0.061247468 -0.26538646 -0.28221488
-0.06729787 -0.048195142 -0.079397425 0.1323491 0.122410305 0.059049908 0.038049046 0.052780386
0.03180708 0.08641045 0.08999321 -0.028671164 -0.09414547 -0.047375795 -0.14888152 -0.019170716
-0.02860559 -0.10244771 0.07520142 -0.024538849 0.0058252867 -0.07182075 0.06503275 0.0048125237
-0.08433343 0.14393343 0.053399425 -0.014000364 -0.13070421 0.12418333 -0.126033 0.059920784
-0.089101255 -0.052320838 -0.086862005 0.039944086 -0.08571758 0.0386224 -0.040397353 -0.009362721
0.0093582375 -0.07928749 0.078855984 -0.008933242 -0.010379075 0.012191815 -0.12751338 -0.109268926
-0.04177259 0.13656858 0.12191654 -0.040793974 0.1169851 0.15556969 0.027420705 -0.06262141
-0.08250171 -0.05711355 0.015450824 -0.07496363 -0.16191125 -0.028915664 -0.072451144 0.010163021
00000000: abb7 88bd 7ce4 43bb 5fd0 103d af0d acbc
00000010: e0ea cf3c 60dd 693c d70d 62bd 6746 10bd
00000020: 42fc 33be 4e51 b33c 1bea 583c 21cd 71b9
00000030: 4474 503d 17a4 6b3d 9551 15be db4a 873b
00000040: 515a 1d3d 49e4 fc3c a2c2 31bc 7edc c7bb
00000050: 7f2f a63c 6639 11bd 6cd1 e9bb 1ffb 92bd
00000060: 63be 91bd 6c8f 94bd 7b84 0fbd 4fe9 cbbc
00000070: 6e30 debd 11ce 11be 22fd 8bbd 78ad b6bd
00000080: ed99 18be d057 2a3c f748 04bb df04 66bd
00000090: 5724 033e d8ac 0e3c b6b4 aebd 4567 e43d
000000a0: c139 123e 66b8 a53d cf8e 06bc 2dbd 853d
000000b0: d137 4a3d c9eb 87bd 9057 74bd 6610 f7bd
000000c0: b4b6 b83d e895 91bd 7812 443d 2c86 b93c
000000d0: c77b a0bc e406 1f3b ad48 82bc f9f3 dd3d
000000e0: 60ec e13d a4a5 a6bc a606 82bd 47f4 69bd
000000f0: 6049 0e3d f785 cebd 2d67 5fbc 4720 10be
00000100: 9912 69bd c66b eebd a7c2 03be 3aea ecbd
00000110: 020b 7bbe 953a 39be 5917 86bd 033c e23c
00000120: 7ad8 d9bd 5acd 1fbe 9e7e 8ebe 52a9 74be
00000130: fc90 31be 6efe e0bc e956 b5bd 3a98 e9bd
00000140: 4ad1 d5bd 22c4 49be a39c 9ebd 3be1 73be
00000150: 7de3 edbd e8ea 54be e9ea e4bd a550 0cbe
00000160: 6b57 66be ab0f 78be b6e1 50be b8d7 27bd
00000170: ba24 8dbc 9d7e eebd 588c 18be b109 44bd
00000180: dab1 b03c b733 00be 35ba 1dbe ec7e 1ebe
00000190: 36e9 0ebe c57d 63be 1fa9 02be a8a3 9ebc
000001a0: 57c1 62bd 4764 0dbe 71be dabd e12f c8bd
000001b0: 0d67 6cbe e5f5 ddbd 85ca acbd a2c0 4cbe
000001c0: e096 c9bd 74b2 39bd 2639 83bd c387 6ebd
000001d0: ed25 8abe 8cfe 38be 14d9 e1bc 751e 63be
000001e0: 137f 41be 78bc 37be 870a 65be df5b 1cbe
000001f0: e6ef 71be a0de 7abd bce0 87be 787e 90be
00000200: 77d3 89bd 4568 45bd 1e9b a2bd 8686 073e
00000210: 41b2 fa3d 51de 713d 51d9 1b3d 3f30 583d
00000220: 2448 023d f6f7 b03d 5c4e b83d cadf eabc
00000230: 57cf c0bd 1f0d 42bd 6674 18be e80b 9dbc
00000240: 4556 eabc 1bd0 d1bd 3403 9a3d b205 c9bc
00000250: 0ce2 be3b c216 93bd e42f 853d 60b2 9d3b
00000260: 01b7 acbd 4963 133e 5bb9 5a3d c861 65bc
00000270: 53d7 05be d453 fe3d cb0e 01be 7f6f 753d
00000280: b87a b6bd 604e 56bd b5e4 b1bd 699c 233d
00000290: b38c afbd 8632 1e3d b277 25bd 1966 19bc
000002a0: 4b53 193c 7b61 a2bd 3f7f a13d bc5c 12bc
000002b0: ff0c 2abc 2ec0 473c de92 02be 63c8 dfbd
000002c0: bc19 2bbd a2d8 0b3e 61af f93d 9517 27bd
000002d0: e295 ef3d a94d 1f3e 63a1 e03c a73f 80bd
000002e0: a8f6 a8bd e6ef 69bd 7425 7d3c 8886 99bd
000002f0: 10cc 25be 8be0 ecbc 4461 94bd cd82 263c

rnn.bias_hh_l0 f4 [192]
-0.034390684 0.023818707 -0.048268437 -0.0459536 -0.06652699 -0.0973447 -0.022057991 0.066151544
-0.060291063 0.012214538 0.06920723 0.059448335 -0.058385745 0.043921333 0.013949754 0.13422312
-0.08184931 0.099580966 0.02751417 -0.038627543 -0.06420301 0.06833389 0.090706564 -0.075215675
-0.046568953 0.027067656 -0.10096775 -0.109635584 0.06549726 -0.041966267 -0.08806926 -0.057896968
0.053434726 0.046191093 -0.029582262 0.14207189 0.01984246 -0.07844963 0.14375597 0.016642671
-0.076518305 0.14283808 -0.1134912 0.10037955 0.042427525 0.035169095 -0.074518204 0.07010629
0.1035756 -0.059152465 0.011782877 0.035432853 0.0027729785 0.17218088 0.03997932 -0.0009921702
-0.09010038 -0.14881302 0.076344796 0.11633663 0.09942552 -0.0011206983 0.06358302 -0.13456815
-0.064870425 -0.035477523 -0.20096326 -0.012333129 -0.042836636 -0.124835074 0.012833181 -0.13183023
-0.18283999 -0.06005828 -0.13615794 -0.15366167 -0.037620533 -0.24907625 -0.08545549 -0.1036255
-0.17517658 -0.21715991 -0.052545078 -0.12389386 0.018961407 -0.18314639 -0.11510865 -0.15263529
-0.1790483 -0.05553852 -0.14513151 -0.11739613 0.014069104 -0.07248841 -0.07737225 0.010003714
-0.22339828 -0.20341593 -0.17606886 -0.13976298 -0.23759665 -0.25046697 -0.10709995 -0.16333333
-0.18123329 -0.2219888 -0.09132262 -0.07289968 -0.19195548 -0.034291476 -0.08359878 -0.16754678
-0.13805076 -0.21750462 -0.019720249 -0.04616695 -0.16812761 -0.11046264 -0.10407845 -0.096570365
-0.29048607 -0.08814359 -0.034078036 -0.15011863 -0.114660956 -0.09063224 -0.08046323 -0.21198466
0.09015135 0.13355431 0.041013066 0.017052824 -0.059765387 -0.066976115 0.12110907 0.06316619
-0.07656855 0.13715787 -0.07276833 -0.19644551 0.010606364 -0.09459067 -0.13784839 0.17946827
-0.063078724 -0.042886958 -0.024893438 -0.033517323 -0.08446929 0.036932185 -0.002907263 0.16012481
0.042325754 -0.020361792 -0.16851212 0.13807185 0.055267517 -0.04303089 -0.08911222 -0.06541619
-0.009073135 -0.1308125 -0.13633129 -0.079829775 -0.111145146 0.094613604 -0.04545328 -0.119735636
-0.049070086 -0.064766034 0.1090263 0.14082353 0.11475708 0.0018050285 -0.11796833 -0.014954447
0.062142443 0.07051765 0.04890231 0.0023660653 0.12608598 0.090287864 -0.06579463 -0.1519649
0.010787799 0.08009973 -0.0041024303 -0.050650313 -0.060794346 0.06625166 -0.14232603 -0.13351505
00000000: 3fdd 0cbd 731f c33c 20b5 45bd d839 3cbd
00000010: 4d3f 88bd a85c c7bd f6b2 b4bc 767a 873d
00000020: c3f3 76bd 7c1f 483c 85bc 8d3d 1980 733d
00000030: e425 6fbd dbe6 333d 828d 643c c971 093e
00000040: 9ca0 a7bd 1bf1 cb3d 6665 e13c ea37 1ebd
00000050: de7c 83bd a3f2 8b3d 5dc4 b93d ad0a 9abd
00000060: 16bf 3ebd fdbc dd3c 2ec8 cebd 9f88 e0bd
00000070: 6d23 863d d2e4 2bbd a85d b4bd 5f25 6dbd
00000080: 5fde 5a3d df32 3d3d 8056 f2bc 4b7b 113e
00000090: a88c a23c 33aa a0bd c434 133e 3656 883c
000000a0: a1b5 9cbd 2544 123e 136e e8bd cb93 cd3d
000000b0: 7cc8 2d3d 780d 103d 009d 98bd e393 8f3d
000000c0: 721f d43d db49 72bd f80c 413c 0a22 113d
000000d0: dcba 353b 2f50 303e 5bc1 233d b50b 82ba
000000e0: 8c86 b8bd 7162 18be a95a 9c3d e641 ee3d
000000f0: 9b9f cb3d 65e4 92ba d037 823d 3ccc 09be
00000100: c9da 84bd e150 11bd 50c9 4dbe e410 4abc
00000110: 7875 2fbd 88a9 ffbd 4342 523c 81fe 06be
00000120: 683a 3bbe acff 75bd fd6c 0bbe 7c59 1dbe
00000130: fd17 1abd d80d 7fbe 4a03 afbd 9b39 d4bd
00000140: 7d61 33be 2b5f 5ebe 8239 57bd 10bc fdbd
00000150: f454 9b3c ba8a 3bbe 15be ebbd 6d4c 1cbe
00000160: 7058 37be 5c7c 63bd 5b9d 14be 626d f0bd
00000170: 1982 663c ce74 94bd 5875 9ebd 9ee6 233c
00000180: 85c2 64be 444c 50be 654b 34be 071e 0fbe
00000190: 894c 73be 353d 80be 3857 dbbd da40 27be
000001a0: 3895 39be 0851 63be 5b07 bbbd 6d4c 95bd
000001b0: fa8f 44be 3875 0cbd d635 abbd 6291 2bbe
000001c0: 2e5d 0dbe 88b9 5ebe 5c8c a1bc 8e19 3dbd
000001d0: a529 2cbe 3d3a e2bd 1527 d5bd afc6 c5bd
000001e0: 97ba 94be a084 b4bd 6995 0bbd b3b8 19be
000001f0: 5dd3 eabd 659d b9bd e8c9 a4bd 8212 59be
00000200: 45a1 b83d 76c2 083e 51fd 273d 5db2 8b3c
00000210: 8dcc 74bd c62a 89bd 0808 f83d 475d 813d
00000220: f9cf 9cbd 1d73 0c3e 9007 95bd 0329 49be
00000230: 51c6 2d3c c1b8 c1bd 2128 0dbe 88c6 373e
00000240: 6b2f 81bd 3caa 2fbd 53ed cbbc 7649 09bd
00000250: 3cfe acbd 3446 173d c887 3ebb c2f7 233e
00000260: c55d 2d3d c6cd a6bc 718e 2cbe b562 0d3e
00000270: 3160 623d 2941 30bd 7880 b6bd ecf8 85bd
00000280: 7da7 14bc b6f3 05be 6e9a 0bbe cb7d a3bd
00000290: 11a0 e3bd c7c4 c13d 382d 3abd f537 f5bd
000002a0: b7fd 48bd 0ea4 84bd 2e49 df3d 0b34 103e
000002b0: c305 eb3d b596 ec3a 6199 f1bd 7f03 75bc
000002c0: 1389 7e3d 8f6b 903d ca4d 483d fd0f 1b3b
000002d0: af1c 013e d8e8 b83d 56bf 86bd b09c 1bbe
000002e0: 4fbf 303c 540b a43d ae6d 86bb b476 4fbd
000002f0: 7e03 79bd f3ae 873d eabd 11be 2bb8 08be

fc2.weight f4 [64, 64]
0.08029694 0.07317181 -0.11755883 0.023903152 -0.059195694 0.029678792 -0.038505625 0.080125734
0.018219912 0.05087681 0.08602113 0.04060361 -0.09013242 0.11114142 0.060711503 -0.108903
0.1059091 0.065235235 -0.06297149 -0.021035219 0.0152796 0.08218887 -0.027675064 -0.005202881
0.09318428 -0.012805251 -0.12931904 0.09149934 0.006462272 0.05420948 -0.041602686 0.020943576
-0.08036475 -0.044066627 0.082548745 0.016669853 -0.090465315 -0.017127309 -0.07144976 -0.078049906
0.089709766 0.10281816 -0.027239248 -0.09868915 8.832494e-05 -0.023824057 0.12868002 0.026051141
-0.12992446 -0.051378366 0.029365297 0.06337767 0.05472994 -0.019495113 0.12240781 0.012710363
-0.0139370775 -0.080070786 -0.05524152 -0.015986715 -0.06752713 -0.08925625 0.022774974 0.016522793
-0.014151797 -0.075948104 0.104633704 -0.03533034 -0.09186776 0.06867625 0.013425216 -0.10910879
0.08483721 -0.047448725 0.08692646 0.10288988 -0.1221468 0.11305323 0.03898576 0.013225913
-0.02988331 0.02070564 0.11582582 0.1245105 0.050587162 -0.10741496 0.08655974 0.095660314
0.060763836 -0.046451837 -0.11919086 -0.02171506 0.09812391 -0.106023416 -0.10055092 -0.08569422
0.00043040514 0.0030054897 -0.02504909 -0.09240498 0.04736407 0.10366318 0.04110706 -0.08085765
0.06594384 -0.046553865 0.06417233 -0.10836382 -0.06568052 -0.09004927 0.12476517 0.058545396
-0.124214545 0.066878766 -0.1095549 0.08925022 -0.104158595 0.021784231 0.017370313 0.090810955
0.07287936 -0.10076417 0.10493237 0.026515678 0.10670847 0.0880025 0.0133371055 0.08510731
-0.10223214 -0.09298349 -0.04796522 0.08698072 0.036693756 -0.088003375 -0.15217835 -0.043953482
0.07973219 0.025005471 0.056967266 0.05094104 0.06630751 0.063458376 -0.04987821 0.07192311
0.102632195 0.028901838 0.053896617 -0.004749308 -0.023406079 0.020712305 0.0143911475 0.12473991
0.022960253 0.0945702 -0.0034907912 0.08742566 -0.047039494 0.0066096545 -0.016291779 0.020613912
-0.04304913 0.0066364217 -0.0560591 -0.05005787 -0.04768336 -0.19346923 -0.012435865 -0.1075384
0.060184103 0.10072163 -0.12237058 -0.01486447 0.048670538 -0.06886579 -0.097708285 -0.07057814
0.06795974 0.12750696 -0.030459512 -0.014949207 -0.13422821 -0.058815278 0.13629131 -0.04837504
0.076898165 0.09965697 -0.11857195 0.1602656 -0.09497629 -0.06792425 -0.043306798 0.11109879
0.062099487 0.10190112 0.056486398 -0.12279111 0.082362 0.057283264 0.07583174 0.048834026
-0.036937274 0.07895763 0.028480455 0.082368806 -0.092492275 0.026228303 0.008859709 -0.012446015
-0.004504887 0.13008775 -0.07852374 -0.05810966 -0.043406963 -0.091311164 -0.10097576 -0.00038099452
-0.05991918 -0.0631733 -0.1172675 -0.118527375 0.11081762 0.015453785 -0.046531945 -0.019726062
0.116255075 0.052826896 0.012589377 -0.08159255 0.013832557 0.049019195 -0.012455771 0.1299335
-0.11916922 -0.021384005 0.11266538 -0.10327705 0.10723381 -0.011769919 -0.080098934 -0.07555074
-0.022895327 0.05180341 0.052640833 0.112177074 -0.015493692 0.091566816 -0.10314983 0.0646612
0.024949886 0.06227144 0.04048556 -0.03770582 0.11823642 0.026492782 0.059842486 -0.103035
00000000: b972 a43d 1adb 953d afc2 f0bd 8bd0 c33c
00000010: 2f77 72bd f020 f33c 13b8 1dbd f618 a43d
00000020: ed41 953c 3464 503d d92b b03d f94f 263d
00000030: 5997 b8bd 1d9e e33d a0ac 783d 8908 dfbd
00000040: dfe6 d83d 0d9a 853d 32f7 80bd 0d52 acbc
00000050: 4a57 7a3c a352 a83d d1b6 e2bc ee7c aabb
00000060: 66d7 be3d 1ecd 51bc 366c 04be 0264 bb3d
00000070: 77c1 d33b c20a 5e3d 9467 2abd dd91 ab3c
00000080: 4696 a4bd 357f 34bd 510f a93d 378f 883c
00000090: e145 b9bd 924e 8cbc 4054 92bd a1d8 9fbd
000000a0: c1b9 b73d 5492 d23d d824 dfbc 891d cabd
000000b0: 173b b938 ab2a c3bc b2c4 033e 3469 d53c
000000c0: eb0a 05be 1f72 52bd 7e8f f03c 27cc 813d
000000d0: 802c 603d 37b4 9fbc f2b0 fa3d 203f 503c
000000e0: 5758 64bc 27fc a3bd ef44 62bd 92f6 82bc
000000f0: aa4b 8abd fbcb b6bd 9592 ba3c cf5a 873c
00000100: f0dc 67bc ae8a 9bbd 324a d63d 8cb6 10bd
00000110: 2a25 bcbd 22a6 8c3d 70f5 5b3c 6e74 dfbd
00000120: 22bf ad3d 9859 42bd 8006 b23d eeb7 d23d
00000130: 1a28 fabd 7488 e73d 88af 1f3d 80b1 583c
00000140: d8cd f4bc e09e a93c 1636 ed3d 5cff fe3d
00000150: 7c34 4f3d 60fc dbbd 3c46 b13d 8ee9 c33d
00000160: 80e3 783d 4844 3ebd 561a f4bd c8e3 b1bc
00000170: 30f5 c83d ce22 d9bd a4ed cdbd 7480 afbd
00000180: 00a8 e139 c0f7 443b c033 cdbc d23e bdbd
00000190: d400 423d 5c4d d43d e05f 283d b298 a5bd
000001a0: 900d 873d 44af 3ebd c86c 833d daed ddbd
000001b0: 8283 86bd c06b b8bd e284 ff3d 4ccd 6f3d
000001c0: 3264 febd bcf7 883d 525e e0bd d2c8 b63d
000001d0: 1a51 d5bd d874 b23c 304c 8e3c 18fb b93d
000001e0: c641 953d 725d cebd c8e6 d63d 6837 d93c
000001f0: f889 da3d a83a b43d e083 5a3c be4c ae3d
00000200: 165f d1bd 216e bebd 2e77 44bd f322 b23d
00000210: 314c 163d 1d3b b4bd a4d4 1bbe 9108 34bd
00000220: a14a a33d 46d8 cc3c 8256 693d 8da7 503d
00000230: 3bcc 873d 77f6 813d 184d 4cbd 6c4c 933d
00000240: d430 d23d 8cc3 ec3c b3c2 5c3d 15a0 9bbb
00000250: 1bbe bfbc daac a93c d9c8 6b3c a377 ff3d
00000260: 2417 bc3c 05ae c13d c2c5 64bb 390c b33d
00000270: 7cac 40bd cd95 d83b 5676 85bc 82de a83c
00000280: 4954 30bd 5776 d93b 3a9e 65bd 7b09 4dbd
00000290: a04f 43bd cc1c 46be ccbf 4bbc 183d dcbd
000002a0: 9b83 763d 2447 ce3d 6d9d fabd 1b8a 73bc
000002b0: c25a 473d 8209 8dbd 481b c8bd 468b 90bd
000002c0: 7a2e 8b3d 2f91 023e 3a86 f9bc 85ed 74bc
000002d0: 1f73 09be 4ae8 70bd f38f 0b3e e824 46bd
000002e0: c97c 9d3d f418 cc3d dad5 f2bd aa1c 243e
000002f0: ee82 c2bd df1b 8bbd 7862 31bd c387 e33d
00000300: 085c 7e3d 89b1 d03d 485e 673d e879 fbbd
00000310: 69ad a83d dba1 6a3d ac4d 9b3d 3006 483d
00000320: 8a4b 17bd 8ab4 a13d d84f e93c fab0 a83d
00000330: 976c bdbd bddc d63c 5028 113c 5fea 4bbc
00000340: bb9d 93bb b935 053e 0ed1 a0bd 6504 6ebd
00000350: 80cb 31bd 5901 bbbd 61cc cebd 38c0 c7b9
00000360: d06d 75bd 0161 81bd f129 f0bd 7bbe f2bd
00000370: 59f4 e23d df31 7d3c 4898 3ebd 8d98 a1bc
00000380: 2417 ee3d 0461 583d ad43 4e3c ff19 a7bd
00000390: f3a1 623c 5ac8 483d 4a13 4cbc 4a0d 053e
000003a0: fe0e f4bd 822d afbc 1bbd e63d eb82 d3bd
000003b0: 669d db3d 9ed6 40bc e90a a4bd 59ba 9abd
000003c0: fb8e bbbc d02f 543d ea9d 573d 18bd e53d
000003d0: 41d9 7dbc 6287 bb3d 3840 d3bd 176d 843d
000003e0: b463 cc3c 5610 7f3d 30d4 253d 6b71 1abd
000003f0: f025 f23d 6407 d93c 651d 753d 0404 d3bd

fc2.bias f4 [64]
-0.12005301 -0.064494595 0.083185196 -0.12964495 0.10489431 0.10090655 -0.038486227 -0.123500675
0.19780682 -0.026464473 -0.084422655 -0.082958415 0.08143012 -0.020800397 0.06695311 0.037894137
0.07795639 -0.069893494 -0.13098252 -0.0571383 0.08501018 0.055788957 0.07102329 0.0040138215
0.018281857 -0.10592171 0.035310164 -0.08148325 0.07640531 0.10547656 0.13694797 0.026739167
-0.03511059 -0.0717389 -0.016433591 -0.09237592 -8.199694e-05 -0.04317534 -0.13478544 -0.03276717
0.082498305 -0.09483856 -0.035711583 -0.021057308 -0.09545836 -0.06495096 -0.022047406 -0.10685523
-0.07367947 0.038975395 0.108610794 -0.011591688 -0.09173315 -0.041912418 -0.08188582 -0.094711766
0.049497023 -0.117525965 0.097776614 0.082856186 0.09652649 -0.035618633 0.07384541 0.008677748
00000000: 5ade f5bd be15 84bd 005d aa3d a5c1 04be
00000010: d4d2 d63d 18a8 ce3d bca3 1dbd eced fcbd
00000020: df8d 4a3e 06cc d8bc c9e5 acbd 1ae6 a9bd
00000030: d6c4 a63d 9865 aabc b61e 893d e236 1b3d
00000040: 9aa7 9f3d 5224 8fbd 4820 06be da09 6abd
00000050: d119 ae3d f682 643d a974 913d 6086 833b
00000060: d5c3 953c 7bed d8bd 64a1 103d b1e0 a6bd
00000070: 637a 9c3d 1804 d83d 173c 0c3e 190c db3c
00000080: 1fd0 0fbd d8eb 92bd bd9f 86bc 962f bdbd
00000090: c6f5 abb8 a0d8 30bd 3205 0abe de36 06bd
000000a0: dff4 a83d b83a c2bd 4f46 12bd 6080 acbc
000000b0: ac7f c3bd 0205 85bd c39c b4bc ead6 dabd
000000c0: 43e5 96bd aaa4 1f3d 566f de3d 10eb 3dbc
000000d0: 97de bbbd 5bac 2bbd c1b3 a7bd 3ef8 c1bd
000000e0: 64bd 4a3d 74b1 f0bd 1b3f c83d 81b0 a93d
000000f0: aeaf c53d d8e4 11bd 433c 973d 1d2d 0e3c

fc3.weight f4 [2, 64]
-0.11391625 -0.0027160645 0.044223994 0.045483164 0.04744371 -0.13633926 -0.13485403 -0.15032832
0.13741298 -0.17816584 0.041157912 -0.14236613 -0.13363661 -0.014273986 0.056427922 0.2106098
-0.0024238746 0.042952485 0.108017586 0.050070737 -0.026546845 0.023205671 -0.09801848 0.00550723
0.08873602 -0.10435793 0.25875852 -0.057264533 -0.050461095 0.119563505 -0.145887 -0.027761735
0.06390686 -0.0017786622 -0.13321832 -0.12724425 -0.16693774 0.114702925 0.04482186 -0.06125055
-0.0019724227 -0.017137796 -0.09757674 0.08548063 0.03109117 -0.091676615 0.03637525 0.07789966
0.065250844 0.005868643 0.10502167 0.020001575 -0.1484219 -0.13623685 0.012064238 -0.059001338
0.08379279 0.08017319 -0.016582534 -0.077882536 0.0026685582 -0.082501836 -0.01586435 -0.11578486
0.050537035 0.09408723 -0.05722083 -0.11042646 -0.20607592 0.11267847 0.1257203 0.18599273
-0.13374399 -0.061624236 -0.055653766 -0.0048716883 0.14723484 -0.004009202 -0.028728861 -0.120683104
0.055815414 -0.029823577 0.112544045 -0.07986039 -0.008976574 0.13962899 -0.09832234 -0.06420155
0.022745624 0.082466766 -0.22917409 -0.08192746 0.1324979 0.051523585 0.06418078 0.095893785
-0.13393666 -0.055366904 0.011695507 0.1398807 0.14102185 -0.08531882 -0.108121395 0.15238278
-0.008249212 0.03545642 0.020924984 0.08085476 -0.024513599 -0.10118839 0.16131583 0.09526478
0.10673714 0.10817988 -0.07885635 -0.061035067 0.20309402 0.008489945 0.16564347 0.14517714
0.029528236 -0.076041065 0.09503011 0.09686358 -0.043659367 0.024252769 -0.10869453 0.11887367
00000000: ec4c e9bd 0000 32bb 3824 353d 8e4c 3a3d
00000010: 5654 423d 859c 0bbe 2d17 0abe abef 19be
00000020: fdb5 0c3e 1b71 36be 3395 283d 6dc8 11be
00000030: 09d8 08be 70dd 69bc f720 673d 18aa 573e
00000040: ded9 1ebb f2ee 2f3d 5338 dd3d f916 4d3d
00000050: c578 d9bc d219 be3c eabd c8bd fe75 b43b
00000060: 3bbb b53d 9cb9 d5bd ff7b 843e 378e 6abd
00000070: 4bb0 4ebd b6dd f43d 6763 15be 946c e3bc
00000080: 9ae1 823d 0022 e9ba 626a 08be 514c 02be
00000090: baf1 2abe 5ee9 ea3d 2097 373d dbe1 7abd
000000a0: c343 01bb 9064 8cbc 50d6 c7bd 7810 af3d
000000b0: e9b2 fe3c f3c0 bbbd 37fe 143d db89 9f3d
000000c0: 3ca2 853d bf4d c03b 9a15 d73d 58da a33c
000000d0: e9fb 17be ac81 0bbe 15a9 453c 63ab 71bd
000000e0: 8e9b ab3d d731 a43d 18d8 87bc e180 9fbd
000000f0: fae2 2e3b b9f6 a8bd f4f5 81bc 9d20 edbd
00000100: ecff 4e3d ceb0 c03d 6460 6abd 4527 e2bd
00000110: 9105 53be f8c3 e63d d3bc 003e e174 3e3e
00000120: 2ff4 08be b269 7cbd 34f5 63bd afa2 9fbb
00000130: bbc4 163e a05f 83bb ca58 ebbc b428 f7bd
00000140: b49e 643d 9350 f4bc 7e7d e63d d88d a3bd
00000150: 7b12 13bc e7fa 0e3e 395d c9bd 1a7c 83bd
00000160: 0855 ba3c 56e4 a83d 9dac 6abe 96c9 a7bd
00000170: 88ad 073e 650a 533d 3671 833d f663 c43d
00000180: b126 09be 68c8 62bd 839e 3f3c e33c 0f3e
00000190: 0868 103e a2bb aebd c06e ddbd 3b0a 1c3e
000001a0: b427 07bc c03a 113d df6a ab3c 2e97 a53d
000001b0: bed0 c8bc dc3b cfbd fa2f 253e 2e1a c33d
000001c0: 0099 da3d 6a8d dd3d 707f a1bd e8ff 79bd
000001d0: e1f7 4f3e 6919 0b3c 719e 293e 51a9 143e
000001e0: 33e5 f13c 6bbb 9bbd 259f c23d 6a60 c63d
000001f0: 2ad4 32bd bead c63c 3d9b debd 0a74 f33d

fc3.bias f4 [2]
-0.10312159 0.058508653
00000000: 6a31 d3bd c5a6 6f3d
